Dmodel1.pth (torch, 304919 bytes, 5 tensors)

fc1.weight f4 [500, 50]
000000 65 17 a4 3d ad 02 99 3d f9 ee 12 be 57 a2 1e bd
       0.08012275 0.074712135 -0.14348973 -0.038729038
000010 38 b2 03 3e e6 61 d9 bd 8d d7 b6 bd c1 34 a0 3d
       0.12860954 -0.10614376 -0.08927832 0.07822562
000020 58 60 02 3d d4 d8 f3 3d c9 49 7f bd 49 21 26 bd
       0.03183016 0.11906591 -0.062326226 -0.040559087
000030 c6 ee c5 bd d7 c2 d7 bd 63 d8 68 3d 14 39 78 bd
       -0.09664683 -0.105352096 0.056846987 -0.06060131
000040 ae 76 bc 3d 7b 08 2c bd 5d ef 88 bd 1c cb e4 bc
       0.09202324 -0.042000275 -0.0668628 -0.027928881
000050 fd b0 9b bd 13 88 2e bd 42 56 97 3d a1 41 60 bd
       -0.07602117 -0.04261024 0.07389499 -0.05475009
000060 fb 4a 4f bd b0 40 04 3e bc f2 01 be c3 d0 27 3d
       -0.050608616 0.12915301 -0.12690252 0.040970575
000070 be 84 e6 bd ec 7b 91 bd eb 4e c6 bc 32 51 d0 bd
       -0.11255787 -0.07103714 -0.024207553 -0.10171737
000080 b8 4e ec 3d 28 18 fd 3d fb 6f a0 bc 78 16 c8 3d
       0.11538452 0.12358123 -0.019584646 0.097699106
000090 9d e8 f9 bd c1 d2 33 bd 28 3b e9 3d ad 35 f7 3c
       -0.122025706 -0.043902162 0.11388236 0.030176962
0000a0 cc 77 d6 3d 2c 83 83 3d 48 98 99 3d e3 f1 98 bd
       0.10472068 0.064215034 0.074997485 -0.07468011
0000b0 d5 af e6 bd 4f d7 13 bd f4 69 25 3c 2c f8 a0 3d
       -0.11264006 -0.036094006 0.010096062 0.07859835
0000c0 e4 1a 08 3e e3 9c 65 bd 84 55 07 bc fd 4e 09 be
       0.13291508 -0.056057822 -0.008260135 -0.13409038
0000d0 29 f0 91 3c d1 b5 9f bc dd 99 f1 3c 77 b2 ad bd
       0.017814713 -0.019495877 0.029492313 -0.08481305
0000e0 1a 20 88 bd f0 fc c2 3d c9 78 dc 3d 1a 06 7f bd
       -0.06646748 0.095209 0.107652254 -0.06226168
0000f0 d3 e1 7d 3d c3 d7 63 3d 1c d4 e3 3b 67 fb 89 3d
       0.06198294 0.05562569 0.0069527756 0.06737404
000100 13 d2 5d ba a3 90 1c bd 33 aa 01 bd a1 e6 9e bd
       -0.00084617845 -0.038223874 -0.031656455 -0.07758833
000110 f5 aa c8 3d 47 84 90 3d 3b ec ca bd 0b f5 eb bd
       0.097982325 0.0705648 -0.09908339 -0.115213476
000120 e2 2e b3 bc 87 73 05 3e 33 0e b6 3d 23 c3 a3 bd
       -0.021872941 0.13032351 0.08889427 -0.07996204
000130 f8 ec e9 bd 05 85 cf 3d d1 c0 ca bd 3b 4a 1d 3d
       -0.11422151 0.10132793 -0.09900058 0.03840087
000140 f3 d0 7c 3d fb 92 2c bd d7 1c b5 bd 33 51 07 3d
       0.061722707 -0.04213236 -0.088433914 0.033036422
000150 5c a2 d8 3b be 10 f3 bc ca 83 82 3d 47 bc 08 be
       0.0066111516 -0.02967107 0.06372793 -0.13353072
000160 7f 56 06 be 4f 84 f1 bd c7 6d 0c 3e fd 8f 51 bd
       -0.13118933 -0.11792814 0.13713752 -0.05116271
000170 d1 d8 0e 3e 7e a2 34 3b 51 37 e6 3d fc a5 59 3b
       0.13949896 0.0027562673 0.112410195 0.0033210507
000180 aa 3f 7e bd 46 7a fc 3c 55 df 50 bd 1e f1 de 3c
       -0.062072434 0.030820023 -0.050994236 0.027214583
000190 05 5e bd bd c2 8a 80 bd 1d f2 dd 3c bd a9 ce bc
       -0.092464484 -0.06276466 0.027092988 -0.025227422
0001a0 c4 47 8f bb 1b 7f ba 3d 3b af 62 bd 3e 4b ef bd
       -0.004372569 0.09106275 -0.055342894 -0.11684273
0001b0 a5 c1 c8 bd 25 a5 93 3d 68 1d 7e bc ef 88 b4 bd
       -0.0980256 0.07209233 -0.015509941 -0.088151805
0001c0 67 06 14 3d 52 d2 71 3d 5b 8c 5f bd 96 49 a5 bc
       0.03613892 0.059038468 -0.054577213 -0.02017669
0001d0 01 af 02 bd c9 38 12 3c 9c 26 a1 bd 31 8d a9 3d
       -0.031905178 0.008924671 -0.07868692 0.08278883
0001e0 aa 9c 60 3c 57 d3 05 be 11 a0 54 bd cb 8d 80 bb
       0.013709227 -0.13068901 -0.051910464 -0.003923153
0001f0 19 5f e2 bd 3f e5 20 3d c8 fc 75 bc 11 58 15 be
       -0.11053295 0.039281126 -0.015013881 -0.14584376
000200 e9 a4 0e 3c 5b 86 a5 3d ed a4 bd 3d 8e 03 cd bd
       0.00870631 0.08082267 0.09259973 -0.10010444
000210 69 dd ba bd 2b ae ed bd cc 72 68 3d 3f 04 0a be
       -0.09124262 -0.116054855 0.056750104 -0.13478182
000220 ab 9b 30 3d 37 18 9c 3d 96 91 a2 bd 12 c7 ed 3c
       0.043117207 0.07621806 -0.079379246 0.029025588
000230 46 16 a4 bd 83 90 ea bd 7b cf 61 3d 6a 65 a0 3c
       -0.08012061 -0.11453345 0.05512951 0.019579608
000240 19 2a 56 bc c2 2c 70 3d 31 ed de 3d 6d 91 d5 3d
       -0.01307156 0.058636434 0.108850844 0.104281284
000250 2f fd 8e bc 41 26 49 bd 23 6b 94 bd 23 b2 af bd
       -0.017454712 -0.049108747 -0.07246997 -0.08578899
000260 2a 99 e4 3d 42 89 f8 bd 30 84 93 3d 28 56 b0 bc
       0.11162026 -0.12135555 0.07202947 -0.021525458
000270 f4 8a a3 bc 56 95 d2 bd 93 11 94 bd 20 2c f2 bb
       -0.019963719 -0.1028239 -0.072299145 -0.007390514
000280 40 36 88 3b 50 5c cc 3d 28 30 97 bd a4 8e ae bc
       0.0041568577 0.09978545 -0.07382232 -0.02130825
000290 a0 0f c7 bb 40 5d 17 bb 71 5c 00 be a7 40 00 3e
       -0.0060748607 -0.0023096353 -0.12535264 0.12524663
0002a0 25 c1 0b 3e c8 cf 53 bd e9 6e 95 bd 58 02 0e bd
       0.13647898 -0.051711828 -0.07296545 -0.034670204
0002b0 10 1d d6 bd bd b4 0d 3e 52 c2 d1 3d 65 4c 0e 3e
       -0.10454762 0.13838477 0.10242142 0.1389633
0002c0 76 37 99 3d 94 e3 84 3d 40 ef 69 bc d2 38 88 bd
       0.074812815 0.064887196 -0.014278233 -0.066514626
0002d0 a2 88 ef 3d 54 79 71 3d a8 b6 6a 3d dc 24 09 be
       0.116959825 0.0589536 0.0573031 -0.13392967
0002e0 68 f6 ca 3d c0 99 82 bd f0 a0 a4 3c 26 93 f1 3d
       0.099102795 -0.06376982 0.020096272 0.117956445
0002f0 30 1b 2c bd b9 fb 8c bd 33 55 8b bd e1 75 e9 bd
       -0.042018116 -0.0688395 -0.0680336 -0.11399437
000300 ac b9 9e bd fa c2 db 3d 60 f3 81 3c a0 4d ec 3c
       -0.07750258 0.10730548 0.01586312 0.028845608
000310 ee 8d 8a 3d 38 d6 a3 3d 77 1f 05 be e8 26 ae bc
       0.06765352 0.07999843 -0.13000284 -0.021258786
000320 00 80 f8 39 75 63 01 3e 40 b7 52 3c 14 93 2a 3d
       0.00047397614 0.12635596 0.012861073 0.04164417
000330 87 41 00 3e 76 79 f2 3d 58 70 fd 3c c4 36 4f bd
       0.12524997 0.11839573 0.030937359 -0.050589338
000340 c8 f9 ce bc 30 f1 bc bc 68 ce b8 3d 4f 6c 10 be
       -0.02526559 -0.023064226 0.09023744 -0.14103816
000350 66 67 ff 3d 1c 4c b8 3d a0 a1 8d 3b 98 8f c6 bd
       0.124708936 0.08998892 0.0043222457 -0.09695357
000360 80 9c 72 3b f2 c1 e7 bd c1 92 00 3e a8 29 10 3d
       0.003701955 -0.11316289 0.12555982 0.035195976
000370 0e 00 14 bd e2 ef e5 3d c8 42 bc bc 4a 29 1c bd
       -0.036132865 0.11227395 -0.022981063 -0.038125314
000380 fb 06 b1 bd ae 58 b8 bd 86 d4 33 bd 96 5f 06 be
       -0.086439095 -0.09001289 -0.04390385 -0.131224
000390 00 cc f2 3b 30 55 b6 bc ae b7 d5 bd ba 6c ed 3d
       0.0074095726 -0.022257417 -0.10435425 0.115930036
0003a0 f0 aa 8b 3d f8 bd d7 3d dc de 0a 3d 40 3b 35 bc
       0.06819713 0.105342805 0.03390394 -0.01106149
0003b0 1e c4 39 bd 5e 70 df 3d 80 4a 23 bc b7 b3 0a 3e
       -0.045353048 0.10910104 -0.009966493 0.13545118
0003c0 fc 2b 0c 3d e3 d8 09 be 5a 8d ff 3d 52 87 48 bd
       0.034221634 -0.13461642 0.124781325 -0.048957177
0003d0 d0 6c 0e bc 47 67 e9 bd b0 06 60 bc 40 cb d5 3d
       -0.008692935 -0.11396652 -0.013673469 0.104391575
0003e0 ce 20 d3 3d 6c 37 bf bd 46 74 cd 3d 9f d1 b8 bd
       0.103089914 -0.09336743 0.10031943 -0.09024357
0003f0 2d 7b e7 bd 00 bd 53 bc 8e 58 19 bd 34 09 ed bd
       -0.11302791 -0.012923479 -0.037437968 -0.11574021

fc1.bias f4 [500]
000000 d8 fd ac 3d 42 14 dc 3c db f3 dd 3c 08 b0 f8 3c
       0.08446854 0.026865128 0.027093818 0.030357376
000010 59 de b0 bd e8 b6 c3 bc 38 48 a6 bc 29 8f 0b be
       -0.086361594 -0.023890927 -0.020298108 -0.1362883
000020 48 c5 ee bc 7d dc d8 bd 1e 34 76 bd 2d ac 00 3d
       -0.029146805 -0.1058893 -0.060108297 0.0314142
000030 de e5 8f 3d 1c 39 5e 3d 7e 84 f3 3d 53 a5 cb bb
       0.070262656 0.054253682 0.11890505 -0.0062147765
000040 cd c1 df bd 3f 26 8f bd bd df a6 bd 1a d6 02 3e
       -0.109256364 -0.06989717 -0.081481434 0.12776986
000050 c8 a9 b9 3d ae 51 94 3d aa d3 80 3d 70 73 7b bd
       0.09065586 0.07242142 0.06290372 -0.061389387
000060 07 57 03 3e 1f 79 dd bd fc 1a d5 3d 10 3a 5f bc
       0.12826167 -0.10814118 0.104055375 -0.013624683
000070 84 20 25 bd 95 48 55 bd a6 59 36 3d 53 2e 08 be
       -0.040314212 -0.052071173 0.04451909 -0.13298921
000080 23 8d 16 be d4 e2 02 3c 38 b5 1e 3d fb 12 06 3e
       -0.14702277 0.00798865 0.038747042 0.13093178
000090 4c 95 8c 3d 01 ae 93 3d b3 c5 a2 bd 60 bf eb 3c
       0.068644136 0.07210923 -0.079478644 0.028777778
0000a0 dd fb cd bd 00 13 70 ba e2 b3 c9 bd 90 74 9f bc
       -0.10057805 -0.00091581047 -0.09848763 -0.019464761
0000b0 dc 49 fe bb c0 31 77 3b ee 07 72 3d 58 e3 01 be
       -0.0077602696 0.0037718862 0.059089594 -0.12684381
0000c0 8a 68 08 be a7 5f cf bd 8a b1 b8 3d 60 7b ae bc
       -0.13321128 -0.10125666 0.09018238 -0.021299064
0000d0 e9 1d ee bd 44 f1 0d be 80 33 72 3c 22 8d 08 3e
       -0.11626799 -0.13861567 0.014782786 0.13335088
0000e0 2c 2a be 3d 76 2d 01 be a7 37 3d bb f1 59 ed 3d
       0.092853874 -0.12614998 -0.0028872283 0.115894206
0000f0 42 8d 92 3d 20 48 18 bd dd ac 7c 3c 22 4d 2a bd
       0.07155849 -0.03717816 0.015422073 -0.041577466
000100 a0 4a 53 3d 6f 19 a0 3d 24 54 a1 3d b0 ca 36 3c
       0.05158484 0.07817351 0.07877377 0.011156723
000110 0b 16 fb bd ce 6a a9 3d bc a2 19 bd 0d 97 07 be
       -0.12260064 0.082723245 -0.03750871 -0.13241215
000120 96 5e d3 bc b5 03 91 3d bc 6a 29 3d 2e 66 b1 3d
       -0.025801938 0.07080785 0.041361555 0.08662067
000130 e8 0d 0a be 50 6e 3f bc 7f a4 d2 bd f6 aa 8d bd
       -0.13481867 -0.011684015 -0.102852814 -0.06917374
000140 fa 8b 8c bc b4 4b 78 bd 15 64 8d bb 96 74 d4 3d
       -0.01715659 -0.06061907 -0.004314909 0.103737995
000150 19 2c f2 bd 34 22 de 3d 5c 38 0b be 3e 2b fb 3c
       -0.11824817 0.108463675 -0.13595718 0.030660268
000160 ae d3 34 bd 59 9f 9c bd b7 7f 10 3e c2 7e fd 3d
       -0.044147186 -0.07647581 0.1411122 0.12377693
000170 29 5e 10 3e 08 cf e9 bc b0 2f 00 be b2 81 e2 3d
       0.14098419 -0.028541103 -0.12518191 0.11059894
000180 ac 0d 91 bd 72 11 07 3d 29 dc 94 bd ba 9c 83 3d
       -0.07082686 0.03297562 -0.07268555 0.064263776
000190 e3 bf 0f 3e b3 5b 99 3d 2e 1e b9 ba 6c 6e 15 bd
       0.14038043 0.07488193 -0.0014123374 -0.03648226
0001a0 c2 33 fa 3c 31 ea 0e 3e 7c b7 ab 3d ca 99 11 3e
       0.030542258 0.13956524 0.08384606 0.14218822
0001b0 ca aa 89 3d 7f d3 35 bc 75 ad 87 bd a0 a3 49 3c
       0.067220286 -0.011097788 -0.06624881 0.012307078
0001c0 dc 50 f5 bd a2 78 51 bd 58 0f c3 3d f5 35 f9 bd
       -0.11978313 -0.051140435 0.09524411 -0.121684946
0001d0 e2 ad e7 bd 91 46 ad bd 38 9f af 3d 26 74 10 bd
       -0.113124624 -0.08460725 0.085752904 -0.035267018
0001e0 af 1b 07 3e 1f 18 06 3e 52 94 b6 3d 68 f6 c3 3c
       0.13194154 0.13095139 0.089150086 0.023921207
0001f0 da f1 f3 bd 40 55 93 3b de 05 32 bd 74 91 45 bc
       -0.11911364 0.0044962466 -0.043462627 -0.0120586045
000200 58 e8 c9 3c 01 12 f2 bd c8 7e 1c 3d e5 e5 42 bd
       0.024646923 -0.1181984 0.038206846 -0.047582526
000210 0e 09 9a bd 68 cd 83 3d a0 eb 98 bc a8 c2 8d 3d
       -0.07521258 0.064356625 -0.018667042 0.06921893
000220 00 2a 0a be a5 d4 c0 3d 34 38 f9 bd 58 70 08 be
       -0.13492584 0.09415559 -0.12168923 -0.13324106
000230 c9 a2 f7 bd b3 0d 4c bd 7b 09 a2 3c d9 2e 9f 3d
       -0.12091596 -0.049817752 0.019779911 0.07772607
000240 7c 00 1d bd 39 f8 19 3b 50 50 63 bd 80 47 84 3a
       -0.03833054 0.00234939 -0.055496514 0.001009211
000250 ba 6f ff 3d fc b5 32 bd 89 c6 d0 bd 50 2f 85 3d
       0.12472482 -0.043630585 -0.101941176 0.06503165
000260 1e cd d5 3d c7 b4 e7 bd 78 cf a4 bd 0d 1c 4c 3d
       0.104395136 -0.113137774 -0.08047384 0.04983144
000270 17 06 34 b7 c9 bf 1e bc a5 bb cc bd e0 60 8d bc
       -1.0730254e-05 -0.00968928 -0.09996728 -0.017258108
000280 1c 33 5b bd c8 ae b7 bd 62 d1 32 bc d6 9d 01 3d
       -0.05351554 -0.08968884 -0.010914179 0.031644665
000290 e0 24 a2 3d f8 3f 70 3d 15 83 8d bd 34 08 af 3d
       0.079171896 0.058654755 -0.069097675 0.085464865
0002a0 c5 e7 30 bd 70 a6 6e bc 2d a3 08 3e e8 5a b8 bd
       -0.043189783 -0.014566049 0.13343497 -0.09001714
0002b0 6f 49 a6 bd 48 17 8e 3c 84 06 cc bd 90 18 fb bc
       -0.08119475 0.017345086 -0.0996218 -0.03065136
0002c0 aa 95 36 3d 54 a6 a1 3d 5a 43 63 bd e0 50 c1 bd
       0.044576325 0.07893053 -0.055484153 -0.09439254
0002d0 8c 9b 1c 3c 23 f0 f6 3d 57 49 fd bd 1d 6d 31 3d
       0.00955857 0.12057521 -0.12367504 0.04331695
0002e0 f4 3a b1 bd d6 fb 91 3d 0f e9 eb bd 3e 45 06 3e
       -0.086538225 0.07128112 -0.11519062 0.13112351
0002f0 80 04 4e bd 9d be f4 3c 1e 77 4b bd 32 8b 12 be
       -0.05029726 0.029876048 -0.049674146 -0.14310911
000300 ac 6c 5d 3d f1 51 05 3e 40 e8 59 3b 70 71 b7 3d
       0.054058716 0.1301954 0.0033250004 0.08957183
000310 91 50 8e bd 60 4e 18 3c 16 6d 0a bd d5 8c 30 3d
       -0.069489606 0.00929603 -0.03379544 0.043103058
000320 c0 0c 2b bb 10 75 07 be 5e af d1 bd 40 d5 4b 3b
       -0.002610013 -0.1322825 -0.10238527 0.0031102449
000330 a0 97 f8 3b 9f e5 09 be b5 ce aa 3d 0d 53 fd 3d
       0.0075864345 -0.134665 0.083402075 0.12369356
000340 29 ef 09 be 35 13 0d 3e a9 04 c5 3d b5 f2 be bb
       -0.13470139 0.13776858 0.096200295 -0.005827273
000350 44 da ba 3d a4 09 93 3d 7a 25 ea 3d 6c 2f 0f 3d
       0.09123662 0.07179573 0.11432929 0.034957334
000360 cd 8e 70 bd 44 9a 18 3d 62 b4 06 3e 6a 88 bd bc
       -0.058729935 0.037256494 0.13154748 -0.023136336
000370 20 50 02 3c c2 76 ad bd e8 44 9b 3d d7 7a 21 bd
       0.007953674 -0.08469917 0.07581502 -0.03942379
000380 3a 3d fd 3d a4 07 0e bd 97 d1 8b bd 33 18 02 3e
       0.12365194 -0.034675255 -0.068270855 0.12704544
000390 e3 ee eb 3d ae 1e 82 3d b1 bb bb 3d bc a6 53 bd
       0.115201734 0.06353508 0.09166659 -0.051672682
0003a0 f9 5a b7 3d 10 a0 d1 3c dc 4e b2 bd 7e 79 ae 3d
       0.089528985 0.025589019 -0.087064475 0.085192665
0003b0 60 08 16 bc a0 08 04 3e 66 4b e2 bd 32 e0 d3 3d
       -0.00915727 0.12893915 -0.11049537 0.10345496
0003c0 1b 70 ab 3c fc b6 0a be 42 82 f6 3d da 60 c0 3d
       0.02092748 -0.13546365 0.120365635 0.09393473
0003d0 e1 78 8c bd 59 1a ff 3d 9a 2a 88 3d ce 6f fc 3c
       -0.06858993 0.12456197 0.066487506 0.030815031
0003e0 ec 3e 73 bd 96 c1 b2 bd 2b 86 e1 3d 61 dd 9a bd
       -0.05938618 -0.0872833 0.11011919 -0.07561756
0003f0 20 ed 29 bd 23 86 03 3e 32 a9 d7 3d dc e2 b7 bc
       -0.041485906 0.12844138 0.10530318 -0.022447042

fc2.weight f4 [100, 500]
000000 4e cd cd bc ef d9 8c 3c 79 81 d2 3c 11 18 ea bc
       -0.025122311 0.017193763 0.025696503 -0.028575929
000010 3c 32 08 bc 6a f0 a2 3c dc 71 09 3b 3a f0 93 3b
       -0.008312758 0.019890029 0.0020972406 0.004514721
000020 c3 bb 2b 3d 70 f7 81 3c e4 17 20 bd e3 ae e6 3c
       0.04192711 0.015865058 -0.039085284 0.028159564
000030 0e 3f b7 bc 60 95 b1 ba c8 e0 1a bd d2 d4 9b bc
       -0.022368934 -0.0013548546 -0.037812024 -0.01902238
000040 dd 19 0d 3d 18 95 5f 3c 64 6a 1b 3d 5f ad 0a 3a
       0.034448493 0.013646387 0.03794326 0.00052901165
000050 aa dd 05 bd 7c d9 41 bc 66 aa dc bc e0 0d d6 3c
       -0.0326821 -0.0118316375 -0.026936721 0.026129663
000060 88 a4 1a bd 58 c4 e9 3c ec eb 7c bc ef 6d 87 bc
       -0.037754565 0.028536007 -0.0154371075 -0.016531913
000070 14 60 26 3d 6e 8b 0d bd 3d 77 cf bc 2c 31 1f bc
       0.04061897 -0.0345568 -0.025325412 -0.009716313
000080 40 9c e0 3c e8 10 0c bc 42 2c 6f bc 18 ce 55 bc
       0.027418256 -0.008548953 -0.014597954 -0.013049625
000090 a8 f4 ca 3b 86 77 b8 3c 18 64 7b 3c 00 4c 3a 3c
       0.006193716 0.02251793 0.015343688 0.011370659
0000a0 e4 f1 2e bd e2 c3 a3 bc 3a 0e 20 bd 48 9d 07 3d
       -0.042711154 -0.019990865 -0.039076068 0.03310898
0000b0 50 61 e8 3b f5 bc 9c bc e0 7f 28 bd 48 49 f4 3c
       0.0070916787 -0.01913307 -0.041137576 0.0298201
0000c0 f0 1d a4 3c 81 6a 12 bd 6d d2 0a 3d 92 d4 0e 3d
       0.020033807 -0.0357461 0.033892084 0.03487069
0000d0 1c fe 35 bd 82 dc 11 bd b8 40 fc bb 4a b1 01 bb
       -0.04443179 -0.035610683 -0.0076981448 -0.001978951
0000e0 25 23 14 bd 60 33 07 bd c6 06 e7 3b 22 bb b1 3c
       -0.03616633 -0.03300798 0.007050368 0.021695677
0000f0 08 94 ad bb 70 4e a8 3b c2 f2 03 bc a0 37 24 bc
       -0.0052971877 0.0051363036 -0.008053483 -0.010023028
000100 df 12 0a 3d e3 8a ac bc c0 99 69 3a 30 2c 8a 3b
       0.033709403 -0.02106232 0.0008911155 0.0042166933
000110 d5 fd 83 bb d0 28 8a ba 95 9e 07 3d 20 f3 af 3b
       -0.004028062 -0.0010540728 0.03311022 0.005369559
000120 e0 2f 2c 3d 82 49 35 bd 30 0a 9d bb 35 40 10 3d
       0.042037845 -0.044259556 -0.004792474 0.035217483
000130 27 13 e3 bc 00 4c 90 ba b2 15 27 3d 6e 26 aa 3c
       -0.027719093 -0.0011008978 0.040792175 0.020770278
000140 f9 ee 05 bb 2d 66 32 3c 54 4e e4 bc 5f db bc bc
       -0.0020436628 0.010888618 -0.027869381 -0.023053823
000150 8b 91 8a 3c fe a5 97 3c bf 41 01 3d 74 e7 4c 3c
       0.016915103 0.018511768 0.03155684 0.012506355
000160 84 21 97 bc d5 e3 95 3c f2 af dd 3c 50 ce b6 bb
       -0.018448599 0.018297115 0.027061436 -0.0055787936
000170 3f d5 e5 bc 3d 21 da bc de 5e e9 bc 88 91 7a 3c
       -0.028055785 -0.026627177 -0.028487619 0.015293486
000180 96 bb fb 3c cf ab 94 bc 3c e8 51 bc 94 ff de bc
       0.030729096 -0.018148331 -0.012811717 -0.027221479
000190 70 d0 3d bb c0 e4 91 3c 86 3f f6 bc de ee b8 3c
       -0.002896335 0.017809272 -0.030059587 0.022574838
0001a0 03 8c eb 3a b7 77 21 3d 75 e9 0b 3d 7b 1b e7 bc
       0.0017970804 0.03942081 0.03415819 -0.028211346
0001b0 7e e7 af bc 82 d7 0b 3d 46 c7 dc 3c 9a 6c eb 3c
       -0.021472689 0.03414107 0.02695049 0.028738309
0001c0 a1 e0 87 bc 74 9b 10 bd 26 7b 10 bd 61 1c 06 bd
       -0.016586604 -0.0353045 -0.035273694 -0.032741908
0001d0 63 e2 12 bc d7 42 67 3c 58 c6 da 3b 2b dd cb bc
       -0.008965108 0.014115057 0.0066764764 -0.024885735
0001e0 24 0f 37 3c 13 2e 21 bd e3 28 ab 39 00 22 93 bb
       0.011173043 -0.03935058 0.00032646125 -0.004490137
0001f0 aa 32 c2 3a b0 f7 27 3b d7 02 23 bd 01 a2 e5 3c
       0.0014816124 0.002562981 -0.03979763 0.028031351
000200 cc 9d 35 bd fa 0b 51 3c 79 e5 03 3d d3 ae 08 3d
       -0.04433994 0.012759203 0.032201264 0.03336985
000210 e9 38 af 3c 81 75 17 bc a0 17 73 3c fb b7 31 bd
       0.021389442 -0.009244324 0.014837176 -0.043388348
000220 48 2a ac bb 37 87 b7 3b b0 ce 09 3a 01 63 2c bd
       -0.0052540638 0.0056008357 0.0005256934 -0.042086605
000230 94 fe 50 3c c1 6c ad 3c af 1f c7 bc 32 e7 b0 bb
       0.012756009 0.021170022 -0.0243071 -0.0053986544
000240 54 80 e3 bc 73 31 df 3c 2c 9d 29 bd 60 93 76 3c
       -0.027771153 0.027245259 -0.041409656 0.015049785
000250 1c b1 6c bc 78 c6 21 bd dd f3 4a 3c e5 09 b4 bc
       -0.014446523 -0.039495915 0.012387243 -0.021977374
000260 e1 36 ad bc 32 3b 39 3c 9e 2a 07 bc 72 31 ce 3c
       -0.021144332 0.011305617 -0.008249907 0.025170062
000270 04 30 07 3d f7 54 ec 3c 57 52 48 bc 5e c6 96 3c
       0.033004776 0.028849108 -0.012226663 0.018405136
000280 ff d1 26 3d 00 47 fb 39 a8 45 1a 3d 60 be 9f 3c
       0.04072761 0.0004792735 0.037664086 0.019499958
000290 f5 ba b0 3c 3c 02 65 3c 48 57 e7 bb a1 7c 13 3d
       0.021573523 0.0139775835 -0.0070599653 0.036007527
0002a0 a2 e8 16 3d ec 5c 03 bc 1b 7c 1d 3d 48 73 91 3c
       0.03684295 -0.00801776 0.038448434 0.017755166
0002b0 83 aa 5c bc f6 d9 05 bd ed 4d ad bc 59 b1 bb bc
       -0.013468388 -0.032678567 -0.021155322 -0.022911714
0002c0 39 26 47 3d b2 76 bb 3c 00 35 0b 3b 4a b2 99 3c
       0.048620436 0.022883747 0.0021241307 0.018761773
0002d0 bc e1 03 bd 3d be 64 bc 37 fd 1e 3d d6 6f 00 bc
       -0.0321977 -0.013961372 0.038815703 -0.007839164
0002e0 4b 0a 9c ba 7b cf 0d 3d 72 f1 12 3d a2 09 0c bd
       -0.0011904923 0.034621697 0.03587479 -0.034188874
0002f0 c2 cc c2 3c 6b a7 d0 bc 0d 58 06 bd ff d4 6e bb
       0.023779277 -0.025470456 -0.032798816 -0.0036442874
000300 94 97 19 bc de ec 00 bd 38 e4 b3 bb 01 ba 28 bd
       -0.009374518 -0.031475894 -0.0054898523 -0.041193012
000310 20 99 99 3a 80 21 c7 bc 66 7f ce 3c 36 2e 71 bc
       0.0011718608 -0.024307966 0.025207233 -0.01472049
000320 20 3e bc bb 9a 86 92 3c fa 14 ea 3c 3e bc a6 3c
       -0.0057447106 0.017886449 0.028574456 0.020353433
000330 5e 2d a2 bc 86 7f ad bc a6 5f 4d bc f3 5b 28 3d
       -0.019797023 -0.021178972 -0.012535011 0.041103315
000340 88 3d cf bb 5a 4e ce bc f2 69 b9 3c 94 b6 73 bc
       -0.006324474 -0.025183845 0.022633526 -0.014875073
000350 c8 f8 b3 bb c3 38 86 bc e0 2d de ba 52 64 fb bc
       -0.0054923035 -0.016384488 -0.0016950928 -0.030687485
000360 f2 7c e1 3c 10 06 1c 3c d7 bc f5 bb ea 23 1e bd
       0.027525399 0.00952293 -0.007499318 -0.03860847
000370 92 32 82 3c 9d 3c 85 3c 40 be b0 3a a9 80 0b bd
       0.015893254 0.016264254 0.0013484433 -0.034058247
000380 33 64 a7 bc 6c 40 1a bc 71 8d d6 bb 3e 3b 71 bc
       -0.02043352 -0.009414773 -0.006547623 -0.014723597
000390 f2 06 ad bc d8 08 cf bc f4 b7 80 3b f8 c4 f4 3b
       -0.021121476 -0.025272772 0.003928179 0.0074697696
0003a0 77 c2 1e 3d fa 9e cf 3c 0d 54 23 bb fa b5 be 3c
       0.038759675 0.02534436 -0.0024921924 0.023280133
0003b0 f6 18 2e bd e0 d6 1b bd 5c 71 2b 3c ab 63 27 3d
       -0.042504273 -0.038046718 0.010464039 0.040866535
0003c0 65 90 36 3c 8d 22 9d bb 6a 7c 9c 3c d8 78 9e bb
       0.011142825 -0.0047953785 0.019102294 -0.004836183
0003d0 80 ef 7e 3c 1c 73 d3 bb 58 50 d9 bb cf 27 0f 3d
       0.015560031 -0.006452931 -0.006631892 0.034950074
0003e0 d3 a9 8e 3c e2 aa f0 3c 40 8d 07 3d eb cb 1e 3c
       0.017414963 0.029378358 0.03309369 0.0096921725
0003f0 af 39 db bc b0 d0 37 3b 5e 03 c2 3c ca dd 90 3c
       -0.026760904 0.0028047971 0.023683246 0.017683882

fc2.bias f4 [100]
000000 1d e3 30 bc 77 fe 2e 3d de 20 92 3c 13 14 24 3d
       -0.0107963355 0.042723145 0.017837938 0.040058207
000010 35 be 2a 3d 78 a7 9f 3b 9e 63 fc 3c d2 b8 71 3c
       0.0416853 0.0048722588 0.03080922 0.014753537
000020 a3 c4 ee bc c5 57 0a bd 6b a1 ef 3c c0 6d eb bc
       -0.029146498 -0.03377511 0.029251775 -0.028738856
000030 4e 19 64 bc ce 7d d6 bc 54 84 ee 39 1c 23 b8 bb
       -0.013922049 -0.026183035 0.0004549349 -0.0056194197
000040 4d ef ce 3c 2a 07 20 3d b0 72 01 3b c1 89 9e bc
       0.025260592 0.039069332 0.0019752197 -0.019352796
000050 40 df 68 ba 62 5c b9 3c 48 e7 f6 bb 8c b0 14 bd
       -0.00088833645 0.02262706 -0.007534895 -0.03630118
000060 19 1c 0d 3d 7b ac d5 bb d4 fb 78 bb f1 f6 1f 3d
       0.034450624 -0.0065208054 -0.0037991898 0.03905386
000070 a7 1f 94 ba 73 21 2c 3d b0 6b c9 3b d2 57 d2 3c
       -0.0011300937 0.042024087 0.0061468706 0.025676642
000080 b4 fb ce 3c d0 02 31 bb 68 7d 97 3c 00 b6 5b 3a
       0.025266506 -0.0027009733 0.018492416 0.0008381307
000090 dd f6 cb bc 14 d6 c6 bc 33 8c a0 3b e7 71 f7 bc
       -0.024897987 -0.024272002 0.0048995255 -0.03020568
0000a0 0e e9 da 3c f4 60 03 3c 30 3d ac 3c 19 87 19 3c
       0.026722457 0.008018721 0.02102527 0.009370589
0000b0 50 0d 96 bb d1 9a 23 3d 35 59 03 3d 35 fc 16 3d
       -0.0045792237 0.039942566 0.032067496 0.036861617
0000c0 4a 1a 9e 3c bc d2 3e bc 9a da 87 3b 4f 98 1e 3d
       0.019299645 -0.011646923 0.0041459324 0.03871947
0000d0 b4 3e ae bc 7f d6 aa bb aa 6e 1a 3d 80 ac a2 bc
       -0.021270134 -0.005213558 0.037703194 -0.019857645
0000e0 ea 98 83 3c 48 29 42 bc 1d e3 6f bc 23 2c 70 3a
       0.016064126 -0.0118506625 -0.01464155 0.00091618503
0000f0 1c f7 89 3c d9 72 bc 3b a8 13 21 bd c2 e3 d9 3c
       0.016841464 0.0057509956 -0.039325386 0.026597861
000100 be 24 13 3c f7 ef fd 3c 80 5c d3 b9 ea c2 1b 3d
       0.008980928 0.030998213 -0.00040313974 0.03802768
000110 03 96 29 bd db 5e 1c bd a8 6a 3f 3c 0c b0 3b 3c
       -0.041402828 -0.0381764 0.011683144 0.011455547
000120 3d 26 4e 3b ed 9f d4 3c 84 de 21 bd 22 7f d7 bc
       0.0031455897 0.025955165 -0.039518848 -0.026305739
000130 3a bf a1 3c 98 91 05 bc 10 c2 3b 3d 3f 91 ce 3c
       0.019744504 -0.008152388 0.04583937 0.025215743
000140 a0 b8 68 bb 35 3d c4 3c 74 81 1d 3d b9 e7 66 bc
       -0.0035510436 0.023954967 0.038453534 -0.014093333
000150 e8 28 09 3d ef 7b 17 3d 85 b8 82 bc b7 38 22 bd
       0.033486277 0.036983427 -0.015957126 -0.03960487
000160 87 a6 ac 3c 88 49 ab 3b c2 b2 d0 bc 13 1f 02 bd
       0.0210755 0.0052272715 -0.025475863 -0.031767916
000170 a0 7f d5 3b b4 38 13 bc 6a 69 ac 3c 82 21 b8 3c
       0.006515458 -0.008985687 0.02104636 0.022476915
000180 64 8b 09 3d 86 80 d7 3c 48 03 36 3c c8 95 3e 3d
       0.0335802 0.026306402 0.011109181 0.04652956

fc3.weight f4 [1, 100]
000000 0e 05 7c 3c c0 f2 d8 bc 5e e8 3f 3d ec 0f 0d 3d
       0.0153820645 -0.02648294 0.046852462 0.034439012
000010 fb 2b 9c bd 4f 6e cb 3d a4 64 d9 3c e4 45 bf 3d
       -0.07625576 0.09933149 0.026537247 0.093395025
000020 3f cb be 3c 1f e5 98 3d cc 61 3f bd 40 28 4d 3c
       0.023290275 0.074655764 -0.046724126 0.012521803
000030 53 41 7d bd cc 53 02 bd ac ee 17 bd 60 52 14 3d
       -0.061829876 -0.031818196 -0.03709285 0.03621137
000040 00 67 a5 bb 99 9f 3f 3d 9f 53 be bd 8d fc 92 bd
       -0.005047679 0.046783064 -0.09293293 -0.071770765
000050 e0 9c 9a bc 6c b9 f8 3c c2 8b c7 bd c0 a7 51 3b
       -0.018873632 0.030361854 -0.097434536 0.0031990856
000060 17 79 bd bd 38 5c b1 3c cb cb 00 3d 5f 1f 09 bd
       -0.09251612 0.021650419 0.031444352 -0.033477183
000070 11 46 52 3d ac 75 89 bd e2 e5 12 3d 0c f2 bb 3c
       0.05133635 -0.06711897 0.035863765 0.022942565
000080 10 5c a7 bd a0 0a 2d bd 7f 9a 3a 3c 00 91 38 3a
       -0.081718564 -0.04224646 0.011389374 0.00070406497
000090 7d cb 80 bd bd d3 52 bd cc ba 87 bd dd 02 8f bd
       -0.06288812 -0.05147146 -0.066274256 -0.06982968
0000a0 ba 45 4a bd e5 5a be bd a3 f2 b9 bd 94 d9 6f 3d
       -0.049382903 -0.092946805 -0.090794824 0.058557108
0000b0 b9 72 cb 3d 16 c8 05 3d 0c 2f b7 3d 40 30 97 bd
       0.09933991 0.03266152 0.0894452 -0.0738225
0000c0 f2 01 ae bc 89 30 99 3d e0 54 9d 3c 34 2d b5 bd
       -0.021241162 0.074799605 0.01920551 -0.088465124
0000d0 53 e4 63 bc 15 b8 b1 bd 22 9d c1 3d 11 d8 9f 3d
       -0.013909417 -0.08677689 0.09453799 0.07804883
0000e0 8e ae a9 bd a6 d3 12 bb 49 bc 84 3d d9 5d 52 3c
       -0.08285247 -0.0022403984 0.06481225 0.012839758
0000f0 98 80 a1 bd 25 89 8e bd 83 c8 01 3d 1a e2 b0 3d
       -0.078858554 -0.06959752 0.031685364 0.086368755
000100 db e1 85 3c ab e3 ff 38 e6 a2 31 3d d6 01 c4 bd
       0.016343048 0.00012201754 0.043368243 -0.09570663
000110 dd d4 88 bd 0a f5 68 bd 5f c9 ca 3d b0 4c a6 bd
       -0.066812254 -0.056874312 0.0990169 -0.08120096
000120 34 34 87 3d 9b b4 95 3d 55 2f 8e 3d 68 9a 87 bd
       0.06601754 0.073098384 0.069426216 -0.066212475
000130 36 9d 85 bd 5d 1c b5 bd aa 1d 54 bd 47 24 0f bd
       -0.06524126 -0.088433005 -0.051786102 -0.034946706
000140 f4 ff b3 bc 48 8d 9e bb b8 61 b9 bc 36 b2 15 3d
       -0.021972634 -0.0048386194 -0.022629604 0.03654691
000150 4c 8a b7 bd 61 f7 18 3d ee 1a 1c 3d 77 54 95 3d
       -0.08961925 0.037345294 0.03811162 0.07291501
000160 79 2e 75 3d a0 4a 97 3b 9e 57 85 3d 80 36 6f 3c
       0.059858773 0.0046170503 0.06510852 0.014600396
000170 60 05 d2 3b fb 9d 8d bd b1 87 c2 3d 90 dc 3f bd
       0.006409332 -0.06914898 0.09498537 -0.046841204
000180 f9 bb b3 3d 83 af 6c bd e8 d1 c4 bd 83 7e d3 bc
       0.08776087 -0.05778457 -0.09610349 -0.025817161
