Dmodel1.pth (torch, 304919 bytes, 5 tensors)

fc1.weight f4 [500, 50]
00000000: d389 99bd 11fa b63d c792 143c 60c3 e73d
00000010: 7056 10bd 202b d9bd 9181 04be f7c0 003e
00000020: 7648 163e 4a54 cebd 324f 9e3d 0a52 d83d
00000030: d74a d9bd fc97 5e3d 8189 7ebd a687 933d
00000040: 9682 c6bd 0c31 163d 7ab3 9d3c 8c27 ac3d
00000050: d80c e5bd 64be 2c3d 49b4 f9bd 9caa 033c
00000060: 9814 1d3d d0c8 80bd 4f96 b5bd 9de1 a3bd
00000070: b91d 053e 3cee 213d 0eba 23ba 4df9 7cbd
00000080: a5db 78bd 6a72 d4bd 6a90 56bc fc11 60bd
00000090: db51 e9bd 7e88 c5bd 34db 9f3d 343d 203d
000000a0: bf6b f8bc 672f 92bd 0472 833d d4f4 86bd
000000b0: 741f 043e 2217 c93c 809c 08be e97d b0bd
000000c0: 8a5e e83d 1a8f 45bd a2b2 f33d bd50 063e
000000d0: a09b cebd 5c28 703d f05d 153d 4079 3ebb
000000e0: d2e4 d73d fc8b cbbd 3c84 653d 5b8a 003e
000000f0: 709a 44bc 4eb4 0ebd b48c c9bd 382f 163d
00000100: 00a2 a23a 3a6f 13bd ea17 e9bd 2eec 0cbd
00000110: 2e84 d53d 90f9 763c 7cc9 a3bc 79ca 073e
00000120: cc04 45bd 53c3 06be 63d4 0abe f6f0 b33d
00000130: 4c54 41bd 4a99 c7bd 4278 b4bd 2492 39bd
00000140: 1cf7 823d 24e3 c33d 1c4a a93d f8b8 7ebd
00000150: 56eb e33d 28c0 0bbd 7055 ff3c 9006 2cbd
00000160: 205d a83d 3a88 e73d 701b 7dbc 9c2a 5a3d
00000170: e054 0ebd 000c fdb9 808b 1f3d 50ee 1d3c
00000180: 286a 33bd b2c8 8f3d 40de cbbb 30da 1b3d
00000190: 1a9d f23d 4064 a33b 5b68 debd 76a3 923d
000001a0: 1458 e7bd ee9a c73d 66e6 febd 02e5 8d3d
000001b0: 9a23 42bd 8a0c f03d a552 f8bd 24e9 49bd
000001c0: 0078 f3ba c037 3f3c 76c4 f43d 5ab7 35bd
000001d0: 74c0 cfbd 001f 57ba 8a10 b63d 8194 d6bd
000001e0: 68ec e3bc d381 103e 1a72 f43d 127a a43d
000001f0: 2c20 a13d 41bc 08be d638 f23d 5002 083c
00000200: c4ca 5dbd ecd1 cb3d e0ad 85bb 9afd a33d
00000210: 4c44 5c3d 688f 893c ccba a73d e28a f9bd
00000220: 3c04 c23d 48fd a33d 0692 bbbd 9e35 c33d
00000230: 14ea 283d f75a debd 4c21 aabd ee6c 10be
00000240: 2887 823d 44fe c83d 109b b13d 20db be3b
00000250: bc1b 753d eee7 8dbd c306 d83c eaa8 8e3d
00000260: 3452 f1bd 2967 ffbc ee3b fb3d b4a1 f6bc
00000270: eccd 543c 902c 993d 8a46 b03b be12 19bd
00000280: 4930 dfbd 4dec 053e 4a9c ddbd b4e7 d83c
00000290: bb45 fdbd 4df8 a0bd cbbf d03d 2b83 cf3d
000002a0: 30ee 01be 6bbc 013e 7d97 993d daca 58bd
000002b0: 2c67 00be 44fa 64bd 87bc b33d 4a38 1fbd
000002c0: 2b12 c03d 1bd2 e63a 3d70 cc3d 08ec d0bc
000002d0: b28b 6fbd 42a9 173d 9713 00be 316f fd3d
000002e0: 818b ec3d d378 82bd 9c1f aabc 3e58 3f3d
000002f0: 1c2d 04be ced8 313d d61c aebd 85f3 cc3b
00000300: 096a c7bd d974 3b39 8114 863d cf90 0e3e
00000310: 6a2e 55bd e03b a7bd 2c61 d53c d24f 253d
00000320: 2201 f63d ac4c 87bc 48d1 023d 5475 8d3d
00000330: 1608 28bd a606 fe3d ff1a 0d3e 24e7 b4bc
00000340: 20bb eebd 7451 27bd 2c14 21bd a855 903d
00000350: bd01 0f3e 703e 44bc 4a1f 16bd 9856 96bd
00000360: 7074 553c c102 f1bd 25a5 cebd 7c0e 5dbd
00000370: 3472 b1bd ba89 09bd 3484 d0bd 2cb5 603d
00000380: 80cc f1ba 38de 693d b039 903d 9cff 0a3d
00000390: 60fc 8cbb fcd3 a9bd 786f bd3d e06a 223d
000003a0: b27d ee3d ac7f debd 10ed 053c 505a 9c3d
000003b0: 347f a13d f054 01be 4c6c 853d fb78 0f3e
000003c0: 8be0 8dbd d0bd 203c ae2e e93d 0cac 4d3d
000003d0: 5410 febc 76a4 943d 60d2 983c 46cd d43d
000003e0: 6482 edbd f48d 563d 214d 30bc 7427 aabc
000003f0: 7cfd e9bd 8e6b a83d 35e3 8dbd b5cb 2a3d
-0.07496991 0.08934415 0.009068198 0.11316562 -0.035238683 -0.106039286 -0.1294005 0.1257361
0.14676079 -0.100746706 0.07729949 0.10562523 -0.10609978 0.054344162 -0.062142853 0.07203607
-0.09692876 0.03666787 0.01925062 0.084059805 -0.111840904 0.04217376 -0.1219259 0.008036282
0.038349718 -0.06288302 -0.0886656 -0.08002017 0.1299962 0.03953384 -0.0006245681 -0.06176119
-0.060756344 -0.10373385 -0.013095954 -0.05470465 -0.11392566 -0.096451744 0.078054816 0.039120868
-0.030324815 -0.071379475 0.06418231 -0.06589666 0.12902623 0.024547163 -0.1334095 -0.086177655
0.11346157 -0.048232175 0.11899306 0.13116737 -0.10088277 0.05863224 0.03646654 -0.002906397
0.10541691 -0.09938809 0.05603431 0.12552778 -0.011999711 -0.03483992 -0.0984129 0.036666125
0.0012407899 -0.035994746 -0.11381514 -0.034404926 0.10425602 0.015074149 -0.019993536 0.13260831
-0.048100278 -0.13160448 -0.13557582 0.08786194 -0.047199532 -0.097460344 -0.08812 -0.045305386
0.063947886 0.09564808 0.08266088 -0.06218812 0.11128871 -0.0341188 0.03116867 -0.041998446
0.08220887 0.1130528 -0.015448436 0.05326329 -0.03474891 -0.0004826486 0.038951397 0.009639338
-0.04380241 0.070207015 -0.0062215626 0.038049877 0.11846371 0.004986316 -0.10859748 0.07160084
-0.112960964 0.09746347 -0.12446289 0.069284454 -0.047397234 0.11721142 -0.12125138 -0.049294606
-0.0018575191 0.011671007 0.119515345 -0.04436431 -0.101441294 -0.00082062185 0.08889873 -0.104775436
-0.027822688 0.14112024 0.11935826 0.080310956 0.078674644 -0.13353063 0.11827247 0.008301333
-0.05414845 0.09952149 -0.0040795654 0.08007355 0.05377607 0.016792014 0.081899256 -0.12184693
0.09473464 0.08007294 -0.09158711 0.09531711 0.04123886 -0.10857194 -0.08307132 -0.14104053
0.06373435 0.09814122 0.08672154 0.0058244616 0.059840903 -0.06929003 0.026370412 0.069658116
-0.11783257 -0.03117712 0.1226729 -0.030106403 0.012988549 0.07479203 0.0053795027 -0.03737139
-0.108978815 0.13078423 -0.108208254 0.026477672 -0.12366816 -0.078598596 0.101928316 0.1013244
-0.12688518 0.12669532 0.07499597 -0.05292783 -0.12539357 -0.055902734 0.08776193 -0.03887204
0.09378465 0.0017610224 0.09982345 -0.025503173 -0.058482833 0.03702665 -0.12507473 0.12374724
0.11550046 -0.06370702 -0.020767026 0.046715014 -0.12907833 0.04341965 -0.08501594 0.0062546157
-0.097370215 0.00017877239 0.065468796 0.13922428 -0.052046217 -0.08165717 0.026047312 0.040359326
0.12011935 -0.016516052 0.031937867 0.06907144 -0.041023336 0.12403612 0.1377983 -0.022082873
-0.11656785 -0.040849164 -0.039325878 0.07047588 0.13965507 -0.011977777 -0.036650933 -0.07340735
0.013028249 -0.117681034 -0.100900926 -0.05396889 -0.08664361 -0.033578612 -0.10181466 0.05486028
-0.0018447787 0.05709669 0.07042253 0.033935174 -0.0043025464 -0.08292386 0.092497766 0.039652705
0.11645068 -0.10864195 0.008174196 0.07634413 0.0788559 -0.12630057 0.065147966 0.14010994
-0.06927594 0.00981088 0.113858566 0.050212905 -0.031013645 0.07257931 0.018655002 0.10390715
-0.11597136 0.05238147 -0.010760576 -0.020770766 -0.114253014 0.082236394 -0.06928102 0.041698176

fc1.bias f4 [500]
00000000: 25be 8c3d 9063 52bd d015 6c3c 3a92 253c
00000010: 2433 d1bd e5b7 3c39 719b 043e f5d7 9dbd
00000020: 5157 cc3d e07d cb3c bb8a febd 0993 91bd
00000030: 4570 fabd 046d 87bd 8ca6 33bd b11d b4bd
00000040: 20b9 a23c ddc2 14be d635 983d 5010 c23d
00000050: d8b8 f4bd 7a2d 8bbc 943b 0abd c2d0 41bd
00000060: 2338 5cbd 80aa 8ebd c728 2bbc 1a6c 2ebd
00000070: 7a35 d43c 1030 513c 134b ba3c 167d 7bbd
00000080: f8c2 16be 5bc7 11be c13e 03be 9b95 013e
00000090: 8329 b03d 38ac 913d 9716 473c 201c 113d
000000a0: 86ae ee3d a084 193c dbf3 e3bd 1f4d 9c3d
000000b0: 0c8c 6b3d ee45 013e 8edc e23d dc01 8fbb
000000c0: 1832 b33d 10ef d63d a4e5 723d 6885 8abd
000000d0: 1051 91bd 91bd a2bd db7c 41bd 18a1 383c
000000e0: cbc0 d0bd aa18 13be 90aa e6bd b88e 9bbc
000000f0: 7213 903d 80cc 703b f8a6 a03c b50e 2e3c
00000100: 7843 bfbc a028 91bc d5af 3ebd 7ed4 853d
00000110: 9bd3 e0bd e7d9 ebb9 5174 09be 58be a23c
00000120: e90f aebd 24ed 963d a59a b03d 6973 c03d
00000130: a506 773d fd4a 4fbd e978 b3bd 7671 fb3d
00000140: 3098 f43d b2c0 d7bd b413 17bd a407 ddbc
00000150: aadb d6bd 9e2b b0bd 5c75 203c 9e30 a53d
00000160: 1731 1d3d fa08 d43d b97e ed3d b6e8 46bd
00000170: b198 af3d f029 ff3d 3c69 bd3d b4c4 713d
00000180: d49e f9bc a68b 60bc 00a2 463b bd9f a8bd
00000190: f3d4 d7bd d59f d8bd c274 88bd c03b db3d
000001a0: 618b e5bd c939 863d 3048 68bd c8c5 a2bc
000001b0: 6cbc 1f3d 23c9 00be e08b f7bd fe43 6ebd
000001c0: fa2e eb3d 80be 56bd bdaf d1bd 9b3b 66bd
000001d0: 606d ed3c 0692 f93d 75f2 0ebe 2c52 013d
000001e0: 2d40 df3d 6073 3abd 8076 b63d 44c1 cdbc
000001f0: b8e4 84bc b269 ebbd 2aca d5bd d13b 0ebe
00000200: 5983 0c3e 754a 04be 79e8 0bbe a31c fd3c
00000210: 7a8c 38bd 3cbb a2bd c559 14bc c319 9d3d
00000220: 2e00 a1bd 9501 963d 047f 80bd 59f2 babd
00000230: 90f0 2b3c 1fbe fbbd 1236 053e bcf9 02be
00000240: a9fb f33d 4479 a0bc 8e1a dc3d 1725 c9bd
00000250: 086b 78bd b2dc e83d 70c5 06bd 1479 35bd
00000260: 08f6 dcbc 27ef 68bd a7fc 04be 6af1 00be
00000270: 8c91 513d 1d76 ac3d 787b e53c 7ad1 0dbd
00000280: 400c 8abc 7df6 c3ba 2067 d53b 290b a7bd
00000290: 766d c63d 37a2 c9bd 7597 e6bc 79bb b03d
000002a0: 81dc ebbd 1ed8 47bd 6c76 633d 301f 01be
000002b0: 980c be3d 01ea 053e c0a7 16bb e543 3c3c
000002c0: 9cfa 0abe e976 dfbd a527 fd3d 57f9 05be
000002d0: 54d0 4f3b 1f7d 11be 6bd6 c1bd ba4f 123e
000002e0: f37a 6abd da49 7fbd c0fb 55bd 1d8a 003e
000002f0: ea19 913d 9f41 0c3e 2e81 fdbc 5539 763c
00000300: 1713 f0bd fe6e bbbc d0b7 3c3d 15dc ff3d
00000310: 3a5c 173d 9a9b de3d b4a2 053e c0b0 3dbc
00000320: 2be9 933b 2eb4 e2bd 0e3e 0d3e 403f 2abb
00000330: 3559 dfbd c4fa 393d 74f4 f4bd 6486 d23d
00000340: 7ba0 d63c 596b b8bd a94b 56bd f42d c5bd
00000350: 5543 0e3e 7499 58bd e11f dbbd d353 ffbd
00000360: 48b9 c0bc 4e63 923d 8032 67bd 5e24 21bd
00000370: f936 abbc a3eb f5bc 241b 243d dd19 563d
00000380: beaa dfbc 2b07 193d a48f 0f3d e3dd f3bd
00000390: 6a24 b23d 8fab f3bd 24de bdbc 545c 2c3d
000003a0: d618 c03b 9e4e fe3d 5a08 c53d 2091 03bd
000003b0: 103f 20bc 5872 bb3c 9cb2 9ebd 82f0 84bd
000003c0: 0805 0fbe 9267 bcbd d112 233d a476 053d
000003d0: 41ea 823d 9ab9 5bbd 66f5 b8bc 269b 7abd
000003e0: 7da6 bebd 0bb1 13be 8846 bdbd 01c8 e3bd
000003f0: faa4 65bc 4f3b 893d 1a95 0bbe 46d0 b33d
0.06872205 -0.05136448 0.014409497 0.010105664 -0.102148324 0.00017997583 0.12949921 -0.07707206
0.09977592 0.024840295 -0.124288045 -0.07108123 -0.12228445 -0.0661259 -0.043860003 -0.08794726
0.019863665 -0.1452746 0.074321434 0.094757676 -0.11949319 -0.016989458 -0.033748224 -0.047318228
-0.053764474 -0.06966114 -0.010446734 -0.042583562 0.025904406 0.012767807 0.022740876 -0.061398588
-0.14722812 -0.14236204 -0.12816907 0.12654726 0.08601668 0.07112926 0.012151382 0.035427213
0.116543815 0.009369999 -0.11130496 0.07631897 0.057506606 0.12624332 0.11077224 -0.0043642353
0.08749789 0.10494816 0.059301034 -0.067637265 -0.070955396 -0.07946313 -0.047238212 0.0112688765
-0.10193022 -0.14364877 -0.11263001 -0.018988952 0.07034959 0.0036742985 0.019610867 0.010623624
-0.023347601 -0.017719567 -0.046554405 0.0653467 -0.109778605 -0.00044985043 -0.13423277 0.019866154
-0.08499128 0.0736945 0.08623246 0.09397013 0.06030907 -0.050608624 -0.08763296 0.122775
0.1194309 -0.105348006 -0.036884025 -0.026981182 -0.10491116 -0.08602069 0.009793606 0.080659136
0.038376894 0.10353275 0.11596436 -0.048561774 0.085740454 0.12459171 0.092485875 0.05902548
-0.030471243 -0.01370517 0.0030308962 -0.08233593 -0.10538664 -0.105773605 -0.06662895 0.10704756
-0.11208225 0.065539904 -0.05670947 -0.0198697 0.038998052 -0.12576728 -0.12087226 -0.05817031
0.114835694 -0.05242777 -0.102385975 -0.056209188 0.028982818 0.12186055 -0.13959678 0.031572506
0.109009124 -0.045520186 0.08909321 -0.02511657 -0.016222343 -0.11494769 -0.1043895 -0.13890006
0.1372198 -0.12919028 -0.136629 0.030897444 -0.045055844 -0.079458684 -0.009054606 0.07670929
-0.078613624 0.073245205 -0.06274226 -0.091282554 0.010494366 -0.12292122 0.13008907 -0.12790579
0.11913235 -0.019589074 0.107472524 -0.098215275 -0.060648948 0.11370219 -0.032903135 -0.044304922
-0.026972786 -0.0568687 -0.12987004 -0.12592092 0.051164195 0.08420966 0.028012976 -0.0346236
-0.016851544 -0.0014950779 0.0065125376 -0.081564255 0.09688847 -0.09845393 -0.028148392 0.086295076
-0.11516667 -0.04879009 0.055532858 -0.12609553 0.09279746 0.13077547 -0.002298817 0.011490797
-0.13572162 -0.10911352 0.12361077 -0.13083397 0.0031709867 -0.14207886 -0.09464725 0.14288226
-0.05724616 -0.06232629 -0.05224204 0.12552686 0.07085021 0.13696907 -0.030945387 0.015028317
-0.11722391 -0.022880074 0.046073735 0.12493149 0.03695319 0.108695224 0.13050348 -0.011577785
0.00451388 -0.11069523 0.13793203 -0.0025977641 -0.10905687 0.045405164 -0.11960688 0.10279539
0.02619957 -0.0900485 -0.05231825 -0.096279055 0.13892873 -0.05288072 -0.1069944 -0.1246716
-0.023525849 0.07147847 -0.056444645 -0.039341323 -0.020900236 -0.030019587 0.040064946 0.05227076
-0.027303096 0.03736035 0.035049096 -0.11907556 0.08698352 -0.118979566 -0.023177214 0.04208024
0.0058623357 0.12417339 0.096207336 -0.032120824 -0.00978066 0.022881672 -0.07748911 -0.06491186
-0.13966763 -0.09199442 0.039812867 0.032583848 0.06392337 -0.0536438 -0.022577953 -0.061183117
-0.09309099 -0.14423005 -0.092419684 -0.11122132 -0.014016384 0.06700765 -0.13631096 0.087799594

fc2.weight f4 [100, 500]
00000000: dcad 743b 60ce f6ba e898 10bc f6d7 8c3c
00000010: 8d24 2c3d 121e 16bc 5de3 103d a49a 483c
00000020: 1864 0f3d f825 863c ef2c c2bc a9e9 353b
00000030: fe24 af3c b7fc 133c 46a7 97bc 40e0 5737
00000040: a263 983c 0ded 163c 0074 e5bc 46ca 9b3c
00000050: b3f8 22bd c6a3 e83c ea09 abbc 74e6 bc3c
00000060: a029 0b3d 97f4 a1bc 5069 9cbc bdc8 263d
00000070: 95a5 31bd 0531 0abd 31c4 d0bc 2ac4 aebc
00000080: 38e9 0f3d 3707 153d 2225 ce3c 1457 1c3d
00000090: 4377 9abc de29 13bd ca56 edbb b145 a3bc
000000a0: 19ff 513b 96b0 04bd d7b8 ac3c 2c36 9c3c
000000b0: b6a3 783b 9acd 953c df34 18bd 6090 02bd
000000c0: 20b8 0e3c c8a4 74bc 1e4e 963b d864 ff3b
000000d0: c027 04bd 101d 4e3c 08a5 aebb 0593 1fbd
000000e0: d329 063c 5683 09bd 64ad adbc 9393 3dbb
000000f0: 0c60 f2bc 6f37 0b3d 1171 c83c 3407 df3c
00000100: 6a37 b73c cd20 1b3d 635a eb3c ed78 183d
00000110: 3ace e8bb 759b e0bc 418f a13c 1a44 e5bc
00000120: f8ea d73c 63ef 013d 7766 37bd ce20 7d3c
00000130: e09d e03a 180f b73c deb7 ef3b 1066 363c
00000140: 63c4 1bbd 02a2 d43c f690 9b3c ff9d a7bc
00000150: 1df7 f6bc b0ab 8e3c f07e d8bc 5bbd 2dbd
00000160: 8675 e1bc 80fc 213b e4fe 783c 4cca 50bc
00000170: 40d7 d0bc 463e d13c 43d0 c93b f02d a23b
00000180: e9de 0b3d 6d2e 423c 666d 2cbd 3a4b 1cbd
00000190: a7b0 f3bc bd7b f7bc bcaf 493c 7243 d73c
000001a0: 1aeb d9bc 6f91 1d3d 6296 f3bc 5fc4 96bc
000001b0: 37cb a73c acf5 99bc b0a4 e7bc 12c1 7ebc
000001c0: f0b2 34bd d6dd 8abc 5d0b da3c 0422 f03c
000001d0: bb37 28bd 3044 26bc 996c f43c 4a58 a8bc
000001e0: ecdd 3f3d a889 573c 4080 74ba 9fbc f63c
000001f0: d9a6 2fbd 5cbd 9bba ce86 e03c d1dc 32bd
00000200: e003 4f3b a00d 263c af35 b23c a9fb 833c
00000210: 1b1f c4bc f828 623c 58b6 f9bb 5ce0 bb3c
00000220: 0082 50bb f4ec 9f3c fc2d 03bc aab3 86bc
00000230: e6bd 30bd cb6f 0b3d e74e 9dbc e679 17bd
00000240: b68a 0c3d 3d93 6fbc 69bf 293d 73a7 ce3c
00000250: 870c 1bbd 6265 063d 9085 0e3b f2a5 883c
00000260: 26d8 a1bc d91f 9bbc 09a2 533c e4aa 2dbd
00000270: 6477 1e3d 2aec 133d a13d 0e3d 72d2 21bd
00000280: 41bd 363c a11c 8cbc f2d7 a63c edec c9bc
00000290: 5229 cf3c 80cd 123b f95c 0b3d 0648 4ebc
000002a0: f198 2f3d 7578 e23c d492 9cbc f599 673c
000002b0: 2514 b73c 8881 b9bb 5ee0 ed3c b7aa ba38
000002c0: ceb5 bfbc 5231 00bb ead1 db3b f713 bbbc
000002d0: a2a5 ad3c 9c4b 8fbc 7938 ccbc 3f4f 18bd
000002e0: 73e4 c4bc cfce 1ebd 3cf4 003c 071c 093d
000002f0: 147d 013c 4067 23bc 1225 7f3c b9d4 1b3d
00000300: ba9d 543c eaa1 d0b7 0b57 123d 53c0 5b3c
00000310: 8ed5 063c cecd 123b b599 093b 1a5d ef3c
00000320: bbab 1d3d f110 0bbd a865 05bd 9acc e73c
00000330: ad79 2e3c 0437 87bc ef80 0e3d b897 18bd
00000340: d121 f83a e737 193d 6ab4 ad3c bfb8 ecbb
00000350: 76a5 d63b 5660 3abc 9adc cf3c 5b05 a53c
00000360: 0c38 6a3c 84de 903c 3d00 303d e0f6 99ba
00000370: 5356 233d 6682 2f3c 620e a13c 71fb 19bd
00000380: 8b13 d3bb bdd6 02bd 3cc4 87bc 20b7 1fbd
00000390: 95d9 83bc 961e 75bb 68e6 ec3b 811d 183d
000003a0: 32f2 ffbc 170e 22bd 58f4 31bd ddb5 02bd
000003b0: f8cc 113c 6746 12bd c14a 033d 3e67 173a
000003c0: 0660 fd3c 3828 45bc dc4a 2b3c 7896 1d3c
000003d0: 4b3f 41bd 8003 803c 0326 21bd fca6 483c
000003e0: 5702 103d a139 e93c 5ac7 97bc 18c3 4f3c
000003f0: fc10 b2bc fc5c 91bb 1e46 cc3c 3458 5f3c
0.0037335074 -0.0018829815 -0.008825518 0.017192822 0.042027045 -0.009162443 0.03537308 0.0122439
0.035007566 0.016375527 -0.023703067 0.002775768 0.021379944 0.00903242 -0.01851238 1.2867211e-05
0.018602196 0.009211791 -0.028009415 0.01901735 -0.03978796 0.028398406 -0.02087875 0.023059107
0.033975244 -0.01976995 -0.019093186 0.040718783 -0.043370802 -0.033738155 -0.025484176 -0.021333773
0.035134524 0.036383834 0.02516419 0.03816898 -0.018855697 -0.0359286 -0.007243012 -0.019930692
0.003204292 -0.032394968 0.021084232 0.0190688 0.0037939376 0.018286515 -0.037159797 -0.031875968
0.008710891 -0.014931865 0.004586949 0.007794004 -0.03226447 0.012580171 -0.005329732 -0.038958568
0.008188683 -0.033572517 -0.021200843 -0.0028927072 -0.029586814 0.033988412 0.024467977 0.027225114
0.02236529 0.03787308 0.028729623 0.0372247 -0.0071046622 -0.027417878 0.01972163 -0.027986575
0.026357159 0.031722438 -0.044775452 0.015449716 0.0017136894 0.022346064 0.00731562 0.011132732
-0.038029086 0.025956158 0.018990021 -0.02046108 -0.03014713 0.017415851 -0.026427716 -0.04241691
-0.02752186 0.0024717152 0.015197489 -0.012743544 -0.025493264 0.02554239 0.00615886 0.004949324
0.03414813 0.011851889 -0.042096518 -0.03815768 -0.02974732 -0.03021037 0.012309965 0.026277278
-0.026601363 0.038468774 -0.029734794 -0.018404184 0.020482643 -0.018793903 -0.028276771 -0.015548961
-0.04411596 -0.016951483 0.026616747 0.029313095 -0.041068774 -0.010148093 0.02983694 -0.020549912
0.0468425 0.013155378 -0.0009326972 0.030119238 -0.042883728 -0.0011881995 0.02740803 -0.04366762
0.0031588003 0.010135084 0.021754114 0.016111212 -0.023940613 0.013803713 -0.007620614 0.022934131
-0.0031815767 0.019522168 -0.008006569 -0.016443092 -0.04314985 0.03404216 -0.019202663 -0.036981486
0.034311973 -0.014622507 0.04144231 0.02522633 -0.037853744 0.03281153 0.002174709 0.016680691
-0.019756388 -0.018936085 0.01291705 -0.042399302 0.03868808 0.036113895 0.034726743 -0.039507337
0.01115352 -0.017103495 0.020366643 -0.024649108 0.025288258 0.002240032 0.034024213 -0.012590414
0.042870466 0.027645329 -0.019112982 0.014135827 0.022348473 -0.0056611933 0.02903765 8.900969e-05
-0.02340212 -0.0019560647 0.0067083733 -0.022836668 0.021197144 -0.017492108 -0.024929272 -0.03718495
-0.024034714 -0.038771447 0.00787073 0.033473995 0.007903356 -0.009973347 0.015572803 0.038044665
0.012977058 -2.487093e-05 0.035727542 0.013412553 0.008229626 0.0022400501 0.0020996158 0.029219199
0.038493853 -0.033951703 -0.03256765 0.028295804 0.010649127 -0.016505726 0.03479093 -0.037254065
0.0018930977 0.03740683 0.021204192 -0.007224172 0.006550486 -0.011375507 0.025373746 0.020144155
0.014295589 0.017684229 0.042968977 -0.0011746548 0.039877247 0.010712242 0.019660179 -0.03759331
-0.0064415387 -0.03194307 -0.016573064 -0.038993 -0.016094962 -0.0037402264 0.007229615 0.037137512
-0.031243417 -0.03956422 -0.043445915 -0.03191172 0.008898966 -0.035711672 0.032053713 0.0005775577
0.030929577 -0.012033515 0.01045486 0.009618394 -0.0471795 0.015626669 -0.03934289 0.012246843
0.03515848 0.028469862 -0.018527675 0.012680791 -0.021736614 -0.0044361334 0.024935778 0.013631869

fc2.bias f4 [100]
00000000: 7840 eabc d87f f43b 276f ddbc f89f d23b
00000010: d1a0 6b3c de6d 813c ce8b 60bc 140b 81bc
00000020: 573e 063d b56e 313d 8971 263d 7ea0 0cbd
00000030: d040 bf3b 3856 bf3b 0813 3a3d 2952 1d3d
00000040: 910a 0c3d 623b 0dbd dec5 af3c 8e1f 45bd
00000050: 5ae1 943c 0308 b2bc 83ae b93c e6b2 9c3c
00000060: 91eb b6bc 01ba 94bc d77f 3cbc 139d 083d
00000070: 8faa 0b3d 702e 94bc e3c7 14bd f1b1 653c
00000080: a1fe 243b 16a6 d93b 45cf 18bc 7903 a5bc
00000090: 1c53 11bd 523d e53c 8f94 1f3d a381 933c
000000a0: 70e4 c2bc 378a bb3c f387 35bd 80f8 af3b
000000b0: 0037 7c3a 4611 163d 2435 0e3c aebd 883c
000000c0: 4588 24bd fc66 c5ba 454d 163c 3006 bf3b
000000d0: 7fce 103d 57a9 073d 3c1c 613c 4e4e 6abc
000000e0: dd03 0d3d 25c7 093d 074f a53c ffec 2dbd
000000f0: 3461 09bd 1c0a 20bd c850 063d 7748 b83c
00000100: 2613 3abc ce8c a53b 1bbe 0cbd 20cc 093d
00000110: 64dd a5bc 1a67 03bd f145 2dbd 7fe3 243d
00000120: 92b0 ac3c 4851 b6bb a2a6 a83c d68c b4bc
00000130: 8373 03bc ca4f 4cbc 250f 273d 3fb9 c8bc
00000140: aefe cf3c 5a51 ba3c 78f7 4e3c ec85 a0bc
00000150: 4a87 b03b 24d3 bc3c bc9c 44bc b9c4 013d
00000160: 14ca 03bd e1a9 243d 9234 e73c f5cf 303d
00000170: d6d4 8f3c f0d4 5f3b e59f 21bd e421 05bd
00000180: 15cf a4bc 404d 83bb a034 0d3d 91e2 99bc
-0.028595194 0.007461529 -0.02703054 0.006427761 0.014381603 0.01579946 -0.013705207 -0.015752353
0.032774296 0.04331847 0.04063562 -0.034332745 0.0058365837 0.0058391355 0.045428306 0.038408432
0.034189764 -0.03448046 0.021456655 -0.048125796 0.018173862 -0.021732336 0.022666221 0.019128274
-0.022329124 -0.0181551 -0.011505089 0.033352923 0.034098204 -0.01808855 -0.03632344 0.014019475
0.0025176185 0.0066421134 -0.009326761 -0.020143257 -0.03547965 0.027983341 0.038960036 0.018006152
-0.023790568 0.022893054 -0.044319104 0.0053701997 0.0009621233 0.036637567 0.008679662 0.016692009
-0.04016902 -0.0015060599 0.009173696 0.005829595 0.03535318 0.03312048 0.013739642 -0.014300896
0.034427512 0.033637185 0.020179285 -0.042462345 -0.033539966 -0.03907214 0.032791883 0.022495491
-0.011357104 0.0050521856 -0.034360986 0.033641934 -0.020247169 -0.032080747 -0.04230303 0.04025602
0.021080289 -0.0055638887 0.02058727 -0.022039812 -0.008023146 -0.012470195 0.040785927 -0.024502395
0.025389995 0.02274387 0.012632243 -0.019595109 0.0053872215 0.023049898 -0.012000259 0.03168175
-0.03217514 0.04020107 0.02822331 0.043167073 0.017557543 0.003415402 -0.039459128 -0.032503024
-0.020118276 -0.0040070117 0.034474015 -0.018784793

fc3.weight f4 [1, 100]
00000000: 5afe 463d 65c5 b23d 5a4c 24bd 23c6 b93d
00000010: 5061 713d d09e bebd cc5e b53d 6fe9 8c3d
00000020: cb8d 73bd 86b6 3ebd 2e45 6b3d 4677 8ebd
00000030: 0077 49bb 847e 953d 0ce2 94bd d803 82bd
00000040: 84bf 123d 3260 bfbd ee9a ac3d aa78 0cbd
00000050: d3f7 a33d 5a58 30bc 48e2 ab3d 8af1 63bd
00000060: bc46 0d3d ead9 4c3c fc84 563d 2317 283d
00000070: eb1f 473d 006e 023b 78a5 863c 40d6 8bbd
00000080: ceae ab3d b346 b3bd 9996 a93d cb80 bcbd
00000090: 061d 11bb 1d6c 82bd 605f a43b 2a7e 8cbd
000000a0: e5b7 b7bd a3e8 ed3a 5a92 343d f81e 8c3c
000000b0: b26d 84bd 39dc a43d 96b9 6d3d 6784 ac3d
000000c0: 73f2 7d3d adcf a5bd 3766 debb 4080 5abd
000000d0: 357e a8bd 9cf5 82bc e82b 3e3c 364a 5d3d
000000e0: 4ec1 303d 6ae9 06bd d771 c4bc a903 c13d
000000f0: 13ac b53d 3afe 6f3d 4b48 203d ce22 bb3c
00000100: abfe abbd e494 8c3d e00f eabb 7403 69bd
00000110: d79d ccbd fa58 72bd 03d8 173d 2034 9d3b
00000120: 7c8a f63c 8a61 61bd 663c 563d fa67 6f39
00000130: 6ea4 0bbc fc9a 8cbd cc10 c0bc faa6 913c
00000140: 19a6 9f3d 94eb 913c 6428 873c 6708 c73d
00000150: 551a a1bd 2681 7b3d ee33 2b3d 6129 973d
00000160: 0035 32bc 57e0 9cbd 7bd0 c23d 20cc 893c
00000170: ca14 8e3c 6caf b33d 629c 2a3d 7901 ea3c
00000180: 12a8 623d 0014 ae3c 624a 6d3d be6b 563d
0.048582412 0.08729056 -0.040111877 0.09070995 0.058930695 -0.09307635 0.08855972 0.068804614
-0.059461396 -0.046560787 0.05743902 -0.06956343 -0.0030741096 0.072995216 -0.072696775 -0.063483894
0.035827175 -0.0934452 0.08427988 -0.03429476 0.08006253 -0.010763252 0.08392769 -0.05565027
0.034491286 0.012503127 0.052372918 0.04103769 0.048614424 0.001990199 0.016436324 -0.06827974
0.08382951 -0.08753719 0.08280677 -0.09204253 -0.0022142543 -0.06368277 0.0050162524 -0.068600014
-0.08970622 0.0018150996 0.044084884 0.01710461 -0.06466235 0.08049817 0.058038317 0.08423691
0.061998796 -0.08096252 -0.0067870873 -0.053344965 -0.08227197 -0.015986256 0.011607148 0.05402585
0.0431531 -0.032937445 -0.023980064 0.09424526 0.08870711 0.05859206 0.039131444 0.022843745
-0.083981834 0.06864336 -0.0071430057 -0.05688806 -0.09991043 -0.059166886 0.03707124 0.0047974735
0.030095331 -0.05502466 0.052303694 0.0002283155 -0.00852309 -0.068654984 -0.02344551 0.017779816
0.077953525 0.017812528 0.016498752 0.097183995 -0.078663506 0.061402462 0.04179757 0.07380939
-0.010876894 -0.07659977 0.09512421 0.016820967 0.017343897 0.087736934 0.041653045 0.028565155
0.055336066 0.021249771 0.057932265 0.052348845
