models/Dmodel1_max.pth (torch, 305015 bytes, 5 tensors)

fc1.weight f4 [500, 50]
0.08655329 -0.092877395 0.06523694 0.054148927 -0.13491288 0.04666139 -0.1093966 -0.020592868
-0.036296494 -0.05654993 -0.12193672 -0.0826025 -0.08314276 -0.1403273 -0.11334566 -0.05345136
0.034022808 -0.08939141 0.036160618 -0.10247572 -0.014840782 0.07949664 -0.0950663 0.11456852
0.096023366 0.10248648 -0.13674554 0.04390797 0.011605114 -0.00704287 -0.06412058 -0.066155784
-0.13677648 -0.083142236 -0.078506075 0.013632655 0.13745095 -0.054474115 0.048517942 0.12647454
0.028707117 -0.044818148 -0.12289372 -0.098064244 -0.030592829 0.08410445 -0.0932568 0.13045706
-0.012365133 0.060539782 -0.00852941 -0.09947724 0.06957896 -0.12500018 0.022170708 0.13671868
0.116822645 -0.021846347 0.13845013 -0.06537019 0.0897086 0.05716619 -0.030385993 0.13511048
0.10173936 0.017638892 0.1220137 0.09545967 0.06540176 -0.09973454 -0.04201881 0.12350868
-0.0052096993 0.04405956 -0.10189976 0.045739517 0.0002246052 -0.07400265 0.078061536 -0.12745629
-0.08805335 0.13050006 -0.10513793 -0.088454254 0.096452475 0.01924336 0.017630279 -0.13683441
0.018907502 -0.13227458 -0.018838093 -0.12287162 -0.11340278 0.040926576 -0.07521781 -0.07170435
0.14037006 0.09909974 -0.09313902 -0.02940552 -0.011415124 0.10186781 0.10953437 0.044903696
0.13118766 0.062166274 -0.11891703 -0.077443205 -0.039677285 -0.04769189 0.09024103 0.10061845
-0.050572693 -0.06676194 0.12758742 0.04822272 -0.12407537 0.0058393627 0.032100275 -0.033246882
-0.047416896 0.05762382 0.0835688 -0.061746515 0.048030853 0.13206004 0.049720466 -0.09071019
0.101843745 -0.0027779937 -0.11985055 0.0064986795 -0.01770296 -0.05464317 -0.13725947 0.09338236
-0.030681677 0.11343725 -0.09649294 -0.08220568 0.0005623847 0.051232666 0.109344855 0.013655767
-0.12567696 0.061372593 -0.006769985 -0.11772883 0.11458294 0.05363272 0.020396665 0.10879554
-0.04230915 -0.09264186 0.093447655 0.008965507 -0.07843581 0.1333525 0.11430304 -0.117946394
-0.026556306 -0.13278507 0.07263926 -0.13809752 0.11200087 0.0049951375 -0.064523205 0.12064059
0.12737827 0.033330545 -0.10565716 -0.026622921 0.06307146 0.04411784 -0.012485832 -0.016403198
-0.021418117 0.11336057 0.09193209 -0.12246681 0.09862277 0.09908287 -0.0065614283 -0.06711667
-0.050255954 0.12857072 0.11251961 0.070474565 -0.08894926 -0.0021027178 -0.016888328 -0.080827646
0.042907506 -0.049927123 -0.13444239 0.06642462 -0.020646647 -0.113211885 0.0579305 0.01686512
-0.09207633 -0.060574614 -0.11286046 0.0037985146 -0.11323808 0.10393156 0.12052198 0.08225529
-0.109353244 0.084080204 -0.033504337 0.06899844 -0.10353352 0.041490078 0.1244102 -0.0075872093
0.004401788 0.010027498 -0.07760734 -0.033797495 -0.11910735 0.039380193 0.1367171 -0.035497613
0.09725578 0.007448867 0.10182157 0.08269411 -0.023496091 -0.069480784 -0.0151715875 0.08943091
0.12776627 0.036520258 -0.11702913 -0.08832459 -0.07655274 0.025805414 -0.04352487 0.0047808737
0.046639204 0.028392121 -0.049912155 -0.12717466 -0.034408085 0.12638082 0.116400495 -0.02573999
0.014954016 0.0024360567 0.06186676 0.041198626 0.031425744 0.14129646 -0.011486977 0.1227584
00000000: da42 b13d 8136 bebd f29a 853d 44cb 5d3d
00000010: 9a26 0abe 0420 3f3d 530b e0bd 60b2 a8bc
00000020: a2ab 14bd e6a0 67bd f6b9 f9bd 802b a9bd
00000030: c046 aabd f6b1 0fbe c521 e8bd d0ef 5abd
00000040: 805b 0b3d d812 b7bd 281d 143d cade d1bd
00000050: c026 73bc 22cf a23d 1fb2 c2bd e6a2 ea3d
00000060: e6a7 c43d 6ee4 d13d 0607 0cbe d8d8 333d
00000070: 6023 3e3c e0c7 e6bb a751 83bd af7c 87bd
00000080: 220f 0cbe 7a46 aabd cbc7 a0bd 805b 5f3c
00000090: f1bf 0c3e 4020 5fbd c0ba 463d 8b82 013e
000000a0: 302b eb3c 3c93 37bd b4af fbbd e8d5 c8bd
000000b0: d09d fabc f43e ac3d 6cfd bebd 8996 053e
000000c0: 2097 4abc 90f8 773d f0be 0bbc b9ba cbbd
000000d0: 6a7f 8e3d 0c00 00be 589f b53c fbff 0b3e
000000e0: b640 ef3d 1cf7 b2bc dfc5 0d3e cee0 85bd
000000f0: 24b9 b73d 1827 6a3d 0cec f8bc 675a 0a3e
00000100: ba5c d03d 707f 903c 52e2 f93d 5c80 c33d
00000110: 5cf1 853d 9f41 ccbd ea1b 2cbd 1ef2 fc3d
00000120: 20b6 aabb cc77 343d d2b0 d0bd 5c59 3b3d
00000130: 0084 6b39 b48e 97bd bade 9f3d e783 02be
00000140: 5155 b4bd cfa1 053e 8e52 d7bd 8127 b5bd
00000150: e088 c53d 40a4 9d3c 606d 903c 521e 0cbe
00000160: e8e3 9a3c fd72 07be 5852 9abc 1ea4 fbbd
00000170: b73f e8bd a0a2 273d cc0b 9abd bbd9 92bd
00000180: 2bbd 0f3e cef4 ca3d acbf bebd d8e3 f0bc
00000190: 8006 3bbc 12a0 d03d 8e53 e03d f0ec 373d
000001a0: 0f56 063e 10a2 7e3d c68a f3bd 8b9a 9ebd
000001b0: a684 22bd 9258 43bd 4ad0 b83d 0c11 ce3d
000001c0: 5025 4fbd 7cba 88bd 47a6 023e 3085 453d
000001d0: 3a1b febd 2058 bf3b 947b 033d e22d 08bd
000001e0: 3838 42bd f406 6c3d 1e26 ab3d eae9 7cbd
000001f0: 00bc 443d bf3a 073e b0a7 4b3d 44c6 b9bd
00000200: 7493 d03d 000f 36bb 3574 f5bd e0f2 d43b
00000210: cc05 91bc 84d1 5fbd bf8d 0cbe 403f bf3d
00000220: 2458 fbbc ca51 e83d 179e c5bd 745b a8bd
00000230: 006d 133a 58d9 513d 32f0 df3d 70bc 5f3c
00000240: 76b1 00be d461 7b3d c0d6 ddbb d01b f1bd
00000250: 76aa ea3d fcad 5b3d e816 a73c 32d0 de3d
00000260: 5c4c 2dbd 04bb bdbd 7c61 bf3d 10e4 123c
00000270: f4a2 a0bd 8f8d 083e b617 ea3d e18d f1bd
00000280: 9c8c d9bc cff8 07be e4c3 943d 7069 0dbe
00000290: b660 e53d 40ae a33b be24 84bd 6a12 f73d
000002a0: 736f 023e 9c85 083d c862 d8bd 5018 dabc
000002b0: 9c2b 813d e8b4 343d 6091 4cbc 0060 86bc
000002c0: 0c75 afbc 9629 e83d e446 bc3d e1cf fabd
000002d0: bcfa c93d f6eb ca3d 4001 d7bb 7774 89bd
000002e0: 30d9 4dbd 0ba8 033e ae70 e63d f854 903d
000002f0: 082b b6bd c0cd 09bb 6459 8abc f788 a5bd
00000300: c8bf 2f3d 6280 4cbd 44ab 09be a209 883d
00000310: 2823 a9bc a2db e7bd 8848 6d3d b828 8a3c
00000320: 8492 bcbd 161d 78bd 6323 e7bd 80f0 783b
00000330: 5ee9 e7bd 12da d43d 3ad4 f63d 7675 a83d
00000340: 98f4 dfbd 3e32 ac3d d83b 09bd 0e4f 8d3d
00000350: 6209 d4bd 80f1 293d c6ca fe3d 209e f8bb
00000360: e03c 903b 604a 243c 99f0 9ebd 3e6f 0abd
00000370: 8eee f3bd 204d 213d 91ff 0b3e f265 11bd
00000380: 0a2e c73d a015 f43b d487 d03d 885b a93d
00000390: e07a c0bc f14b 8ebd 4092 78bc 8e27 b73d
000003a0: 29d5 023e 4496 153d f8ac efbd 86e3 b4bd
000003b0: afc7 9cbd e065 d33c 2247 32bd e0a8 9c3b
000003c0: c008 3f3d 9896 e83c b070 4cbd 133a 02be
000003d0: 7eef 0cbd f969 013e 6263 ee3d acdc d2bc
000003e0: b001 753c 40a6 1f3b 0068 7d3d e4bf 283d
000003f0: 48b8 003d 05b0 103e e033 3cbc c268 fb3d

fc1.bias f4 [500]
-0.12261088 -0.08483265 -0.060362704 -0.07038381 -0.03251963 0.102335796 0.061159685 0.003125742
-0.13218747 0.12470676 -0.11868666 -0.13192761 -0.105791256 0.04096642 0.05138889 -0.07511724
0.035450205 0.034385547 -0.002844885 -0.03291232 -0.08970008 -0.004389748 0.071263194 0.016559586
-0.09764184 -0.098667614 -0.010156125 -0.10557838 0.023011222 -0.074643485 0.04291655 0.11584146
-0.08028786 -0.11171828 -0.049739406 -0.038024902 0.11734377 -0.049583912 -0.1061722 0.015268937
0.05276057 0.03936535 0.013410464 -0.005896583 -0.026329726 0.071510345 -0.015686125 -0.032789387
-0.038846195 -0.12648703 -0.006004706 0.026819587 0.08071384 -0.0144784 0.12592004 -0.033587486
-0.07227094 0.0879958 -0.13943993 0.12847598 -0.1411763 -0.10057424 -0.11352345 0.036807045
0.07579528 -0.053016454 0.05583644 0.05818069 0.09626961 -0.038273655 -0.12114578 0.06668706
0.047468796 0.09503555 -0.023070969 0.038887918 0.110522136 0.061164856 0.006507024 0.040455043
-0.10464388 -0.11419448 -0.031336606 0.017962784 0.095861256 -0.048815258 -0.06522881 -0.13010244
-0.03222415 0.034632847 -0.028538153 -0.12143548 0.11885814 -0.122660145 0.10358183 -0.124667145
0.0303272 -0.009631261 0.03037399 -0.12049018 -0.0076116025 -0.12695065 0.119887635 -0.13053367
-0.009494349 0.046259686 0.01050058 -0.010250077 0.0019529015 -0.07199205 0.064560175 -0.021932244
-0.117828704 -0.00043538213 -0.08732563 0.06333394 0.09191848 -0.046798833 0.1303315 -0.030970298
-0.055055216 -0.123459116 0.055534795 0.019685462 -0.13530844 0.017680243 -0.08225824 0.03936957
-0.006382495 0.08148873 -0.12208936 0.013179496 -0.09455376 0.019178078 0.05433373 0.04070264
-0.07064574 -0.05981417 -0.012133047 0.04154183 -0.11329422 -0.09716721 -0.11206276 -0.1158869
-0.10437463 0.14003478 -0.023219697 0.12117089 0.09551278 -0.037099533 -0.1029734 -0.13008171
-0.06677265 -0.11377591 0.074104816 -0.025419407 0.040856823 0.13117687 -0.037028335 0.013546303
-0.08036153 -0.0984293 -0.068433166 0.08597936 0.13292883 -0.095716745 0.13865672 -0.055754803
0.06318052 -0.012424186 0.03710191 0.046131536 0.10617152 -0.1211181 -0.12148712 -0.11569892
0.054645374 -0.025400914 -0.08803233 0.03177859 -0.004060179 -0.118507214 0.11927499 0.12440054
0.06860365 0.06333557 0.050812975 0.116070256 0.043538705 0.056378275 -0.03767731 0.10916202
-0.037992977 0.030338332 -0.0008189529 -0.0014485717 -0.058388054 0.13115819 0.009471402 -0.03927274
0.05972348 -0.05803594 0.09709473 0.11623575 0.011173755 -0.08239022 0.00812012 0.030592471
0.0038664788 0.017242894 0.030338064 0.095838934 0.0077872574 0.05408494 -0.10745224 0.028237492
0.010569543 -0.07303156 -0.012070507 0.008373216 -0.09974268 -0.1279789 -0.093735725 -0.14011236
-0.12797388 0.07384972 -0.12228131 -0.060921147 0.11627953 -0.020572081 -0.081322245 0.11279018
-0.13335899 0.052923024 -0.058903918 -0.09860647 -0.10608451 -0.011123762 -0.019699335 0.06960711
0.05274023 0.11087178 -0.04706694 -0.093493864 0.09736343 0.06755248 -0.026345521 -0.073169865
0.017552733 -0.117567495 0.10923068 -0.06681739 -0.07066228 0.011594117 -0.0413801 0.07796262
00000000: 6a1b fbbd bebc adbd e23e 77bd 6325 90bd
00000010: 4e33 05bd 6e95 d13d 9482 7a3d 40d9 4c3b
00000020: 275c 07be 4266 ff3d fe11 f3bd 0818 07be
00000030: 16a9 d8bd 68cc 273d 287d 523d 11d7 99bd
00000040: 3c34 113d dcd7 0c3d 4071 3abb 12cf 06bd
00000050: adb4 b7bd e0d7 8fbb 70f2 913d f8a7 873c
00000060: 72f8 c7bd 3f12 cabd e065 26bc 7a39 d8bd
00000070: 0882 bc3c afde 98bd 44c9 2f3d 4a3e ed3d
00000080: f66d a4bd 8ecc e4bd 8cbb 4bbd 00c0 1bbd
00000090: ee51 f03d 8018 4bbd cf70 d9bd 902a 7a3c
000000a0: 781b 583d 903d 213d 90b7 5b3c 2038 c1bb
000000b0: 70b1 d7bc 0474 923d 3080 80bc 2a4e 06bd
000000c0: 301d 1fbd d185 01be 20c3 c4bb c0b4 db3c
000000d0: 4c4d a53d d036 6dbc 2ff1 003e 0893 09bd
000000e0: c902 94bd 2437 b43d 57c9 0ebe 358f 033e
000000f0: 8590 10be def9 cdbd fc7e e8bd fcc2 163d
00000100: 8e3a 9b3d c827 59bd c0b4 643d e04e 6e3d
00000110: 0029 c53d d6c4 1cbd 471b f8bd 3a93 883d
00000120: a46e 423d 00a2 c23d 54ff bcbc f048 1f3d
00000130: 6e59 e23d 0088 7a3d e038 d53b 30b4 253d
00000140: 884f d6bd ccde e9bd d05a 00bd b026 933c
00000150: e852 c43d 82f2 47bd af96 85bd 9339 05be
00000160: 78fd 03bd 2cdb 0d3d d8c8 e9bc 2ab3 f8bd
00000170: e66b f33d 3e35 fbbd b622 d43d 7d51 ffbd
00000180: c070 f83c 70cc 1dbc e0d2 f83c 8ec3 f6bd
00000190: c06a f9bb 5aff 01be a687 f53d 9eaa 05be
000001a0: 308e 1bbc cc7a 3d3d a00a 2c3c f0ef 27bc
000001b0: 80f8 ff3a 9170 93bd 2038 843d 40ab b3bc
000001c0: 2d50 f1bd 0044 e4b9 c8d7 b2bd 3ab5 813d
000001d0: c23f bc3d 22b0 3fbd 9f75 053e 6cb5 fdbc
000001e0: 9481 61bd 22d8 fcbd 7478 633d 6843 a13c
000001f0: 4c8e 0abe 28d6 903c 0277 a8bd fc41 213d
00000200: 4024 d1bb 90e3 a63d fd09 fabd d0ee 573c
00000210: 67a5 c1bd 581b 9d3c 0c8d 5e3d d0b7 263d
00000220: b7ae 90bd b4ff 74bd b0c9 46bc c427 2a3d
00000230: cd06 e8bd 9aff c6bd 2981 e5bd 1c56 edbd
00000240: 5ec2 d5bd 4765 0f3e 3c37 bebc 7228 f83d
00000250: 349c c33d aef5 17bd b8e3 d2bd 2434 05be
00000260: 19c0 88bd 5803 e9bd 44c4 973d 5c3c d0bc
00000270: 7c59 273d 3b53 063e 06ab 17bd 50f1 5d3c
00000280: 9694 a4bd 4d95 c9bd b026 8cbd f215 b03d
00000290: 7f1e 083e 2407 c4bd 07fc 0d3e 265f 64bd
000002a0: ca64 813d d08e 4bbc 2cf8 173d 6cf4 3c3d
000002b0: 7470 d93d c40c f8bd 3dce f8bd 8ef3 ecbd
000002c0: d4d3 5f3d 9415 d0bc 4b4a b4bd 442a 023d
000002d0: 400b 85bb e9b3 f2bd 7246 f43d b6c5 fe3d
000002e0: 1280 8c3d 14b6 813d 4421 503d 3eb6 ed3d
000002f0: a455 323d e8ec 663d 8653 1abd 5690 df3d
00000300: 869e 1bbd 1888 f83c 00af 56ba 00de bdba
00000310: 5028 6fbd 554e 063e f02d 1b3c 74dc 20bd
00000320: 9ca0 743d 18b7 6dbd 9ad9 c63d 020d ee3d
00000330: 2012 373c 34bc a8bd 400a 053c 109d fa3c
00000340: c064 7d3b f840 8d3c 8887 f83c 3447 c43d
00000350: 402c ff3b 2c88 5d3d ec0f dcbd 5052 e73c
00000360: e02b 2d3c 9291 95bd 60c3 45bc d02f 093c
00000370: e445 ccbd e70c 03be 84f8 bfbd 9d79 0fbe
00000380: 960b 03be 863e 973d a06e fabd 7488 79bd
00000390: f623 ee3d c886 a8bc 478c a6bd 8afe e63d
000003a0: 428f 08be d0c5 583d 3c45 71bd 30f2 c9bd
000003b0: d642 d9bd 7040 36bc 8060 a1bc 2c8e 8e3d
000003c0: 2406 583d be10 e33d 44c9 40bd b679 bfbd
000003d0: 7a66 c73d f458 8a3d 90d2 d7bc 15da 95bd
000003e0: c0ca 8f3c 3ac7 f0bd 56b4 df3d 8ed7 88bd
000003f0: 63b7 90bd 40f5 3d3c 2e7e 29bd deaa 9f3d

fc2.weight f4 [100, 500]
-0.037953306 0.007762149 -0.033434328 -0.010248531 0.039544303 -0.0054627135 0.004126221 0.034166265
-0.0055210143 0.0036123693 0.016160466 -0.029714828 -0.028241567 0.013606213 0.014941651 0.0008811392
-0.025964636 0.029154498 0.014311537 -0.013518766 -0.037934575 -0.022443527 -0.025231032 -0.029498823
-0.02420645 -0.023557087 0.010083079 -0.019028973 -0.025701532 -0.035504784 0.017896015 0.014665082
0.0048514903 -0.041767865 0.0060499012 -0.0056381524 -0.01893517 0.008049373 0.036078166 0.04192241
-0.042258725 0.00031762198 -0.04071347 -0.037970033 0.042696986 0.034462128 0.02433591 -0.043726385
-0.033278476 0.036221568 -0.035952047 -0.01920888 -0.02779615 -0.011994787 -0.011236787 0.042809274
-0.011615463 0.03427395 -0.0025198832 -0.023558361 -0.009220272 -0.01934369 0.024339821 0.041375753
-0.026328268 0.03633101 -0.04311885 -0.01907109 -0.013019115 -0.0057693794 -0.03615108 0.029173229
-0.030301675 0.0015805885 -0.018608358 0.019385349 0.00946106 0.024617802 0.03191032 0.018179704
-0.023969365 0.02017418 -0.038444676 0.00515233 0.016405642 0.038864117 0.010441985 -0.017310167
0.019249517 0.024583112 -0.028926343 -0.027275696 -0.007321153 -0.0032267533 0.028892595 0.0021510608
-0.030061105 -0.03413602 -0.0058829337 0.026068043 0.042272817 -0.0333345 0.005718209 0.011530489
-0.0016336031 -0.015915284 0.043231305 -0.014402237 0.0055880956 0.0034036152 0.014981158 0.034892034
0.034545224 0.0075827986 -0.021224346 -0.018992892 0.0028956197 0.0027708076 -0.031140951 0.04272792
-0.015234346 0.0296545 0.015798029 -0.0024300627 0.00024605542 0.03291517 -0.037461575 -0.035528984
0.009085342 0.020584334 -0.02137701 0.018357638 0.016919326 0.03806771 -0.011258177 -0.011015654
-0.040002033 0.03016581 -0.03447481 0.01036286 -0.02168114 -0.037766416 0.029046636 0.026456792
0.030072521 -0.013796851 -0.009334791 0.022626456 -0.04429369 -0.019598361 -0.018389415 -0.007053878
-0.02109283 -0.014208682 -0.038561825 0.010669466 -0.030931868 -0.03271248 0.0019351617 -0.020187229
-0.011670832 -0.0087570995 0.016590003 0.010766454 -0.0343695 0.01628831 0.0065721124 -0.04058018
0.012722701 -0.0052413344 0.020021554 -0.020395467 -0.00084994733 0.03195056 -0.04328108 0.0332631
-0.008736316 0.010792375 -0.008728553 -0.035311528 -0.013884513 -0.035183214 -0.012853723 0.038037855
0.037543695 0.012614589 0.007353641 0.018454824 -0.01170259 -0.0188904 0.0131234415 0.03316779
0.008318439 -0.010595072 0.025083695 -0.011874683 -0.010393072 0.017309237 -0.04252863 -0.026077898
-0.025968427 0.015688203 -0.007936485 0.00724319 0.024666805 0.016633708 -0.0011932515 -0.041048136
-0.020445207 -0.04121174 0.004261475 0.016092543 -0.036480546 0.012857974 -0.034464188 0.038404603
0.044613834 -0.009597521 0.029224765 0.018168706 0.044268403 0.021856736 0.04114798 -0.024127243
-0.037499133 0.032377627 -0.043208487 -0.03458131 0.035594273 0.017221685 -0.04365701 0.023463387
-0.0047702007 0.033939105 0.02787305 -0.009690985 0.0007934384 -0.03993406 0.03857184 -0.036383957
-0.02858608 0.043210443 0.008107249 0.017013468 0.040656153 -0.021716522 0.044553634 -0.029872157
0.027704712 -0.024605041 0.015847556 0.034138795 -0.0054884776 -0.023446636 -0.0077700727 0.022082616
00000000: ed74 1bbd a059 fe3b 6ff2 08bd 74e9 27bc
00000010: 35f9 213d 9000 b3bb 4035 873b edf1 0b3d
00000020: a0e9 b4bb 80bd 6c3b f462 843c 836c f3bc
00000030: dc5a e7bc 98ec 5e3c d4cd 743c 40fc 663a
00000040: cab3 d4bc 6ad5 ee3c f07a 6a3c d07d 5dbc
00000050: 4961 1bbd 7ddb b7bc 4fb1 cebc 84a7 f1bc
00000060: 9b4c c6bc cbfa c0bc 8033 253c a6e2 9bbc
00000070: 058c d2bc 776d 11bd aa9a 923c d045 703c
00000080: 40f9 9e3b c814 2bbd 403e c63b 40c0 b8bb
00000090: ee1d 9bbc 84e1 033c b3c6 133d d5b6 2b3d
000000a0: 7c17 2dbd 8086 a639 2bc3 26bd 7786 1bbd
000000b0: 09e3 2e3d 2928 0d3d 1a5c c73c 701a 33bd
000000c0: 034f 08bd 115d 143d 7442 13bd f15b 9dbc
000000d0: c0b4 e3bc c885 44bc 801a 38bc c758 2f3d
000000e0: c84e 3ebc d762 0c3d a024 25bb 77fd c0bc
000000f0: a010 17bc a876 9ebc 4e64 c73c 9f79 293d
00000100: 61ae d7bc d3cf 143d 649d 30bd f93a 9cbc
00000110: 204e 55bc 100d bdbb 2813 14bd b2fc ee3c
00000120: 383b f8bc c02b cf3a 8e70 98bc 06ce 9e3c
00000130: 9002 1b3c 46ab c93c 65b4 023d 9aed 943c
00000140: 675b c4bc 5244 a53c 2a78 1dbd e0d4 a83b
00000150: 2065 863c fb2f 1f3d dc14 2b3c 0dce 8dbc
00000160: 2ab1 9d3c 8662 c93c f0f6 ecbc 4871 dfbc
00000170: 48e6 efbb f077 53bb 2ab0 ec3c d0f8 0c3b
00000180: b542 f6bc 36d2 0bbd a0c5 c0bb a68c d53c
00000190: 4326 2d3d c289 08bd d05f bb3b 60ea 3c3c
000001a0: a01e d6ba c560 82bc 4f13 313d 5cf7 6bbc
000001b0: 581c b73b 300f 5f3b 8873 753c f3ea 0e3d
000001c0: 4b7f 0d3d 2079 f83b aede adbc fb96 9bbc
000001d0: 70c4 3d3b 7096 353b 4f1b ffbc 7903 2f3d
000001e0: 7a99 79bc feed f23c de6a 813c b041 1fbb
000001f0: 0001 8139 0fd2 063d 4f71 19bd d786 11bd
00000200: b0da 143c 7aa0 a83c d71e afbc c262 963c
00000210: 669a 8a3c e3ec 1b3d 3874 38bc 007b 34bc
00000220: 2cd9 23bd 4a1e f73c 7535 0dbd fcc8 293c
00000230: a59c b1bc f5b0 1abd 36f3 ed3c eabb d83c
00000240: a65a f63c 300c 62bc f4f0 18bc 1e5b b93c
00000250: 4d6d 35bd be8c a0bc 66a5 96bc 3824 e7bb
00000260: dfca acbc 88cb 68bc 01f3 1dbd fcce 2e3c
00000270: d464 fdbc 85fd 05bd 40a5 fd3a b05f a5bc
00000280: 0437 3fbc f079 0fbc c2e7 873c c865 303c
00000290: 08c7 0cbd 106f 853c e05a d73b 6737 26bd
000002a0: e072 503c 80bf abbb 3e04 a43c 6514 a7bc
000002b0: 00cf 5eba 97de 023d 8047 31bd e33e 083d
000002c0: c422 0fbc 80d2 303c 3402 0fbc d2a2 10bd
000002d0: de7b 63bc 461c 10bd 6c98 52bc 95cd 1b3d
000002e0: 6bc7 193d 6cad 4e3c d0f6 f03b 922e 973c
000002f0: 38bc 3fbc 0ac0 9abc b403 573c f3da 073d
00000300: 104a 083c f496 2dbc 527c cd3c 088e 42bc
00000310: b447 2abc 1acc 8d3c 8032 2ebd 51a1 d5bc
00000320: bdbb d4bc 8c84 803c 0808 02bc 4858 ed3b
00000330: 0a12 ca3c 6a43 883c e066 9cba 1722 28bd
00000340: b57c a7bc a4cd 28bd d8a3 8b3b 82d4 833c
00000350: a06c 15bd 40aa 523c 522a 0dbd 254e 1d3d
00000360: ffbc 363d ec3e 1dbc c668 ef3c 8ad6 943c
00000370: c952 353d e60c b33c c98a 283d 7fa6 c5bc
00000380: b198 19bd 679e 043d 62fb 30bd 22a5 0dbd
00000390: 4dcb 113d 7e14 8d3c b1d1 32bd 4a36 c03c
000003a0: 584f 9cbb bb03 0b3d 0656 e43c f0c6 1ebc
000003b0: c0fe 4f3a e691 23bd 81fd 1d3d 5807 15bd
000003c0: 5b2d eabc 6ffd 303d 44d4 043c d45f 8b3c
000003d0: 1187 263d d9e6 b1bc df7d 363d 74b6 f4bc
000003e0: fef4 e23c 8390 c9bc bcd2 813c 1fd5 0b3d
000003f0: b0d8 b3bb 2913 c0bc 189c febb 9ae6 b43c

fc2.bias f4 [100]
-0.029228447 -0.042968504 -0.027476886 -0.034433864 0.028459702 -0.020454489 -0.023587726 -0.034826133
0.024768803 -0.020448262 -0.020240244 -0.03957811 -0.028195916 -0.011097446 -0.040832218 -0.0020105466
-0.014691133 0.02191909 0.020840023 0.015930578 0.011886954 0.019876648 0.0040215924 0.0058320314
0.012820933 0.02825303 -0.04264036 -0.02070787 0.00601067 -0.010187719 0.0087740645 -0.013761634
0.034180287 -0.015213214 0.019612525 0.03905428 -0.0359044 -0.03412868 0.0048892945 -0.02410988
-0.0063642226 -0.041734368 0.02620503 0.0010176003 0.004132971 -0.02956422 -0.017315924 -0.009786867
-0.039823864 0.027599338 0.006056741 0.0144509375 -0.024159273 0.034735877 0.022878107 -0.008181725
-0.012180116 0.0036357827 0.013375223 -0.027212804 -0.044631958 0.00067633763 0.017553158 0.04188842
0.00069706887 0.002022162 0.04447699 0.01644221 -0.029449686 0.023903828 -0.020476468 -0.018014397
0.000121641904 -0.02385121 -0.040530592 0.025832254 0.024362016 -0.02081823 0.035721425 -0.0401133
-0.03512461 -0.01339994 0.022000398 -0.027086802 -0.022663467 -0.020127904 0.041545544 -0.04196715
0.0036777258 -0.004685253 0.010133788 0.020882417 -0.03527607 -0.020847019 0.0110762045 -0.025899611
0.007938851 0.020192724 0.018785443 -0.004809547
00000000: 7f70 efbc beff 2fbd 3517 e1bc 860a 0dbd
00000010: 5224 e93c 2c90 a7bc 0c3b c1bc d9a5 0ebd
00000020: f2e7 ca3c 1d83 a7bc dece a5bc a81c 22bd
00000030: 1ffb e6bc 10d2 35bc af3f 27bd 60c3 03bb
00000040: 14b3 70bc aa8f b33c b2b8 aa3c d880 823c
00000050: 80c1 423c 5ad4 a23c 90c7 833b a01a bf3b
00000060: e40e 523c e672 e73c a8a7 2ebd 8da3 a9bc
00000070: 28f5 c43b 64ea 26bc 18c1 0f3c 7a78 61bc
00000080: a100 0c3d d840 79bc 72aa a03c 61f7 1f3d
00000090: 7e10 13bd 84ca 0bbd 6036 a03b 1582 c5bc
000000a0: f88a d0bb a8f1 2abd eeab d63c 0061 853a
000000b0: e06d 873b aa30 f2bc 20da 8dbc 1859 20bc
000000c0: 591e 23bd 0218 e23c a077 c63b a0c3 6c3c
000000d0: abe9 c5bc 3547 0e3d de6a bb3c a40c 06bc
000000e0: 1c8f 47bc 5046 6e3b c023 5b3c 63ed debc
000000f0: 00d0 36bd 404c 313a a4cb 8f3c 3193 2b3d
00000100: 80bb 363a 4086 043b 812d 363d d0b1 863c
00000110: 7840 f1bc f6d1 c33c 44be a7bc ee92 93bc
00000120: 001a ff38 9d63 c3bc 6803 26bd 2a9e d33c
00000130: da92 c73c fe8a aabc a150 123d d84d 24bd
00000140: d3de 0fbd 6c8b 5bbc 2e3a b43c 24e5 ddbc
00000150: bca8 b9bc 46e3 a4bc a92b 2a3d bfe5 2bbd
00000160: 0006 713b c086 99bb 3008 263c 9a11 ab3c
00000170: a47d 10bd 5ec7 aabc f878 353c 6c2b d4bc
00000180: f411 023c 366b a53c eee3 993c 6899 9dbb

fc3.weight f4 [1, 100]
-0.044669416 0.037912138 0.06775332 -0.091102 -0.048529353 -0.012664616 0.046694763 -0.04438572
0.0060503036 0.056450687 0.010615364 0.021694839 -0.012017861 -0.07405217 0.07889856 0.07048292
-0.012877032 0.04997594 0.056466497 -0.08626095 0.03984014 -0.05785891 -0.027568266 -0.06404517
0.03072185 -0.07912022 -0.09426441 -0.052349366 0.0866233 0.0028795823 0.05041092 -0.036345616
-0.024072304 0.09212194 0.017513692 -0.07794009 -0.08496038 0.023267485 0.030945398 -0.04941794
-0.05553515 0.054560788 0.052781247 0.00887917 0.056515984 -0.02429185 0.037078716 0.028252982
0.061806582 0.032976426 0.013975784 0.007482052 -0.042556655 0.039473586 -0.09679015 -0.04619479
0.05019819 -0.07639164 -0.0698293 -0.019315958 -0.09404161 0.08005882 -0.02379439 0.07143738
0.028730638 -0.06788468 -0.055515718 0.016744077 -0.00074555725 -0.0580796 -0.0921345 0.043639995
-0.082132496 -0.05940447 0.087091915 0.034498684 0.081658 -0.08956417 0.034494303 0.07238961
-0.042532314 -0.02163098 0.04869301 -0.03640165 -0.09867672 -0.013174996 -0.022061601 -0.0355324
0.008076683 -0.07239477 0.062113114 0.08625095 -0.08074397 0.056706496 0.053007014 -0.047713757
-0.065294564 0.041382976 0.015163258 -0.010109805
00000000: 47f7 36bd c249 1b3d 41c2 8a3d af93 babd
00000010: b7c6 46bd 407f 4fbc 0243 3f3d cdcd 35bd
00000020: a041 c63b d638 673d 10ec 2d3c 60b9 b13c
00000030: 90e6 44bc aaa8 97bd 9195 a13d 5959 903d
00000040: 30fa 52bc 92b3 4c3d 6a49 673d 95a9 b0bd
00000050: 6a2f 233d 77fd 6cbd d8d6 e1bc 1d2a 83bd
00000060: 64ac fb3c c809 a2bd b30d c1bd 4a6c 56bd
00000070: 8f67 b13d 60b7 3c3b ae7b 4e3d 24df 14bd
00000080: 4833 c5bc 6daa bc3d e078 8f3c 0e9f 9fbd
00000090: b5ff adbd 749b be3c 3481 fd3c 776a 4abd
000000a0: d378 63bd 227b 5f3d 2631 583d f079 113c
000000b0: 4e7d 673d b4ff c6bc dadf 173d cc72 e73c
000000c0: e628 7d3d 4a12 073d b0fa 643c 002c f53b
000000d0: e34f 2ebd 0eaf 213d ea39 c6bd c036 3dbd
000000e0: 9e9c 4d3d 3873 9cbd aa02 8fbd 803c 9ebc
000000f0: e398 c0bd e1f5 a33d 74ec c2bc c34d 923d
00000100: 845c eb3c 2007 8bbd 7364 63bd e02a 893c
00000110: 8071 43ba e0e4 6dbd 03b1 bcbd dabf 323d
00000120: 1535 a8bd 1a52 73bd 3f5d b23d 7e4e 0d3d
00000130: 4f3c a73d 6b6d b7bd e649 0d3d 0141 943d
00000140: 5d36 2ebd 7433 b1bc 5272 473d e619 15bd
00000150: 0517 cabd f0db 57bc 88ba b4bc 6c8a 11bd
00000160: 1054 043c b643 94bd 526a 7e3d 57a4 b03d
00000170: 185d a5bd 1245 683d e21d 593d 806f 43bd
00000180: 28b9 85bd 3281 293d 506f 783c 98a3 25bc
