models/Dmodel0_max.pth (torch_old, 303900 bytes, 5 tensors)

fc1.weight f4 [500, 50]
-0.0328883 0.017319579 -0.016511358 -0.06755245 -0.024752013 -0.118871614 0.033691313 -0.011556112
-0.12597534 0.08190027 -0.022095155 -0.092431314 -0.021165421 0.068851285 0.09751676 0.11788387
0.068474375 0.0033997728 -0.13728902 -0.10705158 0.012604825 0.04519359 -0.087688826 -0.09481657
0.05145401 0.087238476 -0.06810152 0.12643747 -0.0789551 -0.007514675 -0.09372248 -0.03323106
-0.021256728 -0.049171403 -0.13542192 -0.121758156 -0.11643145 0.13218133 -0.050160464 0.07639087
0.04992999 -0.10454604 0.0022352287 -0.062397406 0.08715236 0.042123333 -0.058289777 -0.11405942
0.13228552 -0.042347282 -0.123989716 0.021282598 -0.073459364 0.026291579 0.10082582 0.043497503
0.12267409 0.05350408 0.13162379 -0.13587344 -0.116476834 0.07593836 0.01924102 0.10917486
-0.0991701 0.077163294 -0.1008503 -0.038113058 0.09751929 0.044311777 -0.0868665 0.07165474
-0.053728297 -0.018234551 -0.06599039 0.026133105 0.058521643 0.08969298 0.12432934 0.09170276
-0.035662234 -0.12795001 0.07633519 0.017337322 -0.04786461 0.08110115 -0.062232256 0.12917574
0.0526641 -0.048421524 0.03894791 0.13870202 -0.076265216 -0.008828387 -0.06440002 -0.10242514
-0.09999684 0.080360234 -0.12750563 0.06308822 -0.11801765 0.028489009 0.06384536 -0.076220125
0.11008142 -0.10896163 -0.009996527 -0.12430961 -0.070377156 0.029356701 -0.03936056 -0.046901245
-0.0592762 0.03874553 -0.087967284 0.1209243 -0.021547792 -0.039145023 -0.032211024 0.11558613
-0.08521579 0.13787371 -0.12486467 -0.03898854 -0.0013104456 0.11204646 -0.11809104 0.10323151
0.0849983 0.12497226 0.123682596 -0.08684746 0.07000213 0.07477081 -0.048049822 -0.08520938
0.13699652 0.06564345 0.014933741 0.01377119 -0.06843836 0.03752053 -0.06747366 0.08097416
-0.031411093 -0.048733797 -0.1248186 -0.059729017 0.094267234 0.004984285 -0.09247563 0.120877504
-0.030974902 -0.0045300843 -0.10390536 0.034070317 -0.04660818 0.05080199 -0.07250821 0.04206648
-0.14732222 0.08590748 0.045408227 0.0034293751 -0.08876855 0.03293277 -0.11885937 -0.0646709
-0.103315614 -0.08734385 0.08005373 0.13140045 -0.047716293 -0.13252567 0.08539894 -0.058959108
-0.023778437 -0.076937355 -0.09691678 0.041976042 -0.019310294 -0.14676878 -0.12215378 -0.04021419
0.014722518 -0.14141086 0.083817065 0.13830277 0.02097489 0.12070767 -0.0012195441 -0.0125135435
0.060799807 0.12148328 -0.13529497 -0.032920096 0.13109303 0.05857885 -0.009726271 -0.12438885
-0.0156131005 0.11377726 0.021915976 0.14864498 -0.03980948 -0.12930048 0.0944813 0.13262762
0.12642105 0.011146842 -0.074147865 -0.058901623 -0.080049746 0.040909298 -0.019601868 -0.056061603
-0.11043337 -0.068900295 0.083066784 0.0013943799 0.03279341 -0.09396631 -0.023847299 -0.14137246
-0.03182227 0.105751574 0.018544903 0.110310934 0.020349076 0.01487099 -0.025284957 -0.060912047
-0.07894949 -0.13838404 0.002802724 0.087804876 0.09650178 -0.016252317 -0.07986509 0.09571718
0.023976382 0.049938355 0.13256197 0.05785774 -0.14521267 -0.0216677 -0.019290596 -0.13881455
0.13208596 0.008797092 0.0124855535 0.12865666 -0.109065 -0.06626388 0.13913763 0.12271093
00000000: e2b5 06bd cae1 8d3c d442 87bc f058 8abd
00000010: bcc4 cabc f672 f3bd e7ff 093d d955 3dbc
00000020: aeff 00be 54bb a73d e600 b5bc a14c bdbd
00000030: 1b63 adbc e701 8d3d deb6 c73d 196d f13d
00000040: 4b3c 8c3d b9ce 5e3b 7e95 0cbe dc3d dbbd
00000050: 7884 4e3c ea1c 393d 3396 b3bd 312f c2bd
00000060: 71c1 523d 16aa b23d cf78 8bbd d378 013e
00000070: 36b3 a1bd aa3d f6bb 92f1 bfbd 4b1d 08bd
00000080: 9722 aebc f467 49bd 0bac 0abe 575c f9bd
00000090: 9d73 eebd 8b5a 073e 0f75 4dbd d172 9c3d
000000a0: 6483 4c3d 3c1c d6bd ea7c 123b 6c94 7fbd
000000b0: f07c b23d 8489 2c3d 43c1 6ebd fc97 e9bd
000000c0: db75 073e 5874 2dbd 52ee fdbd d858 ae3c
000000d0: dd71 96bd 7061 d73c c47d ce3d 702a 323d
000000e0: 8e3c fb3d 1827 5b3d 63c8 063e 6822 0bbe
000000f0: 688b eebd 9285 9b3d 589f 9d3c 1297 df3d
00000100: b219 cbbd ca07 9e3d 9a8a cebd 701c 1cbd
00000110: 32b8 c73d 4480 353d 10e7 b1bd b8bf 923d
00000120: 3412 5cbd a060 95bc f825 87bd 1815 d63c
00000130: 64b4 6f3d f4b0 b73d 62a0 fe3d a8ce bb3d
00000140: 9012 12bd 5405 03be a055 9c3d 0007 8e3c
00000150: ae0d 44bd 5c18 a63d 40e7 7ebd a546 043e
00000160: 50b6 573d a655 46bd d887 1f3d e707 0e3e
00000170: f030 9cbd f0a4 10bc 28e4 83bd 46c4 d1bd
00000180: 25cb ccbd e893 a43d d690 02be 6634 813d
00000190: 3db3 f1bd c861 e93c 5bc1 823d 4c19 9cbd
000001a0: 5e72 e13d 4627 dfbd 79c8 23bc 0996 febd
000001b0: e621 90bd 777d f03c 8a38 21bd 851b 40bd
000001c0: 9acb 72bd a2b3 1e3d 3128 b4bd 29a7 f73d
000001d0: ff84 b0bc 8856 20bd b5ef 03bd 6cb8 ec3d
000001e0: 9e85 aebd c42e 0d3e 0cb9 ffbd 73b2 1fbd
000001f0: 42c3 abba 9d78 e53d b7d9 f1bd 0b6b d33d
00000200: 9713 ae3d 75f1 ff3d 4d4d fd3d 15dd b1bd
00000210: 475d 8f3d 7021 993d e4cf 44bd 4182 aebd
00000220: d148 0c3e 1370 863d a6ac 743c 8fa0 613c
00000230: 6929 8cbd 21af 193d a12f 8abd c8d5 a53d
00000240: eba8 00bd 179d 47bd e5a0 ffbd 6aa6 74bd
00000250: 2e0f c13d 3753 a33b dd63 bdbd a08e f73d
00000260: 14bf fdbc 1a71 94bb 55cc d4bd 518d 0b3d
00000270: 38e8 3ebd bf15 503d 2f7f 94bd e74d 2c3d
00000280: a3db 16be 43f0 af3d fafd 393d 5ebf 603b
00000290: 49cc b5bd 83e4 063d 8b6c f3bd 2d72 84bd
000002a0: 2397 d3bd 55e1 b2bd 36f3 a33d d78d 063e
000002b0: 2972 43bd cfb4 07be a4e5 ae3d 1b7f 71bd
000002c0: ffca c2bc 5591 9dbd 4e7c c6bd 12ef 2b3d
000002d0: 9f30 9ebc 8e4a 16be c32b fabd a2b7 24bd
000002e0: b736 713c 02ce 10be 48a8 ab3d 3e9f 0d3e
000002f0: 88d3 ab3c 9535 f73d 1cd9 9fba 9b05 4dbc
00000300: 3809 793d 3acc f83d c48a 0abe 39d7 06bd
00000310: 403d 063e 60f0 6f3d f05a 1fbc 95bf febd
00000320: 17ce 7fbc 0d04 e93d 2289 b33c 6436 183e
00000330: 440f 23bd 5867 04be 697f c13d 89cf 073e
00000340: 8574 013e 3ea1 363c d6da 97bd d442 71bd
00000350: 1ff1 a3bd 8290 273d 1994 a0bc daa0 65bd
00000360: e42a e2bd 991b 8dbd eb1e aa3d a0c3 b63a
00000370: 6252 063d 6971 c0bd 695b c3bc f1c3 10be
00000380: 1258 02bd 4894 d83d 7beb 973c b3ea e13d
00000390: 1bb3 a63c 74a5 733c 6622 cfbc e97e 79bd
000003a0: 45b0 a1bd 8cb4 0dbe e8ad 373b 0bd3 b33d
000003b0: baa2 c53d 9423 85bc 4f90 a3bd 5e07 c43d
000003c0: 1e6a c43c 298c 4c3d 53be 073e 3dfc 6c3d
000003d0: a1b2 14be 7680 b1bc 5007 9ebc 6725 0ebe
000003e0: 8b41 073e ae21 103c 3590 4c3c 92be 033e
000003f0: 795d dfbd 5bb5 87bd 187a 0e3e de4f fb3d

fc1.bias f4 [500]
0.054157745 -0.059520528 0.0516509 0.012613156 0.12982665 0.07339958 -0.13877347 0.00368763
-0.08973987 -0.030226663 0.12187571 0.011727798 -0.0201938 -0.11018685 0.017831152 -0.04477366
0.06963351 -0.10671642 -0.011890031 -0.13714416 0.082574256 -0.111625075 -0.047721446 0.002210468
0.076211415 0.009008895 -0.0639904 0.12619968 0.08265608 -0.040485643 0.119688295 0.020356955
-0.04706823 -0.08475106 0.0509818 0.019401891 -0.10974631 0.123328224 0.008961238 0.10939263
-0.04274244 0.05229283 0.053527024 0.1198631 -0.13843475 0.10306166 0.08362521 -0.00076803565
-0.0864033 -0.1176499 -0.1174159 0.034991223 -0.0065455316 0.061442383 0.05881923 -0.0025822518
0.040243145 -0.13350186 -0.06492928 -0.13555147 0.11989573 -0.08999927 0.04547071 -0.001316309
0.045859292 -0.08836451 0.018873714 -0.009431073 -0.025830105 -0.13733213 0.057265975 0.048585102
0.046152987 -0.046787255 -0.058198176 -0.100809455 0.055654887 0.07874562 -0.13110761 0.07964312
0.12772903 -0.12373885 0.099281885 -0.09406321 0.014966038 0.12624331 -0.10834706 0.0035061045
-0.13197224 -0.0004341098 0.079174586 0.07761535 -0.06061621 -0.10381164 0.13438477 0.027674114
-0.08433364 -0.030489992 -0.07978773 0.0596504 -0.09110576 -0.13568984 -0.0009333044 -0.13475351
-0.12527655 0.110990874 -0.08234566 -0.023695143 0.036067054 -0.011639371 -0.13361953 -0.043711625
0.085319795 -0.014376298 0.1253487 0.048993908 0.14169937 -0.1163363 0.053318266 0.09391947
0.055974614 0.04983832 0.04391506 -0.007616639 0.0106839 -0.13810204 0.08219802 -0.099742085
0.046736427 0.049815234 0.00068987906 0.14246234 0.10174762 0.09581257 -0.08848467 -0.060199812
-0.06933096 -0.043203957 -0.0562855 -0.08493678 0.14848621 0.07870098 0.06333498 0.116766945
-0.078311935 -0.0051218006 0.09122972 -0.032835834 -0.13714711 -0.014843836 6.8098307e-06 -0.039032117
0.021091102 0.13550174 -0.03769273 -0.10148062 0.09977092 -0.12913826 0.08894816 0.13205047
-0.10913723 0.048020583 0.030670322 -0.06778283 -0.07993156 0.05901485 0.06786343 -0.022798665
0.006669046 -0.061236843 -0.11277679 0.026653316 0.08863826 -0.12240538 0.12934309 -0.13827369
0.057824872 0.117569536 0.11956299 0.05966752 -0.07464831 0.0022262782 0.13223912 0.07451984
-0.11137248 0.13507569 0.11534468 -0.003104202 -0.04453033 0.029781165 -0.028577128 -0.013138697
-0.12532105 -0.13137141 0.034989573 -0.14111525 0.063874535 -0.028696187 -0.10562685 0.13149823
0.07761318 -0.08543104 -0.11035633 -0.06330118 0.118527636 -0.09842697 -0.08901805 -0.014837146
-0.0049044583 0.1436581 0.116208844 -0.0019471647 -0.1290567 0.07129877 0.028806107 0.09211782
0.064228065 -0.053058505 -0.062125027 0.086497106 -0.083427414 0.08713049 0.044939566 -0.023854502
0.06635218 -0.07823254 0.049788628 -0.028521396 -0.09769989 -0.020163476 -0.058539078 0.0038236082
-0.016747035 0.010655105 -0.04243414 -0.09878369 0.070322834 -0.074920885 0.14733389 0.047148924
-0.12636757 -0.095338486 -0.13024975 0.11505751 -0.09823745 -0.12752728 -0.10983131 -0.11403461
-0.0692463 -0.07929948 0.045555357 -0.116766825 -0.05688466 -0.122802265 -0.0075208545 -0.08114214
00000000: 83d4 5d3d cccb 73bd e58f 533d 69a7 4e3c
00000010: 47f1 043e 8552 963d a21a 0ebe 2aac 713b
00000020: 89c9 b7bd e89d f7bc f999 f93d f325 403c
00000030: 786d a5bc a5a9 e1bd a312 923c 9664 37bd
00000040: 049c 8e3d 238e dabd 68ce 42bc 856f 0cbe
00000050: b11c a93d b09b e4bd 9077 43bd 80dd 103b
00000060: bb14 9c3d 0b9a 133c 660d 83bd 7d3a 013e
00000070: 9747 a93d 46d4 25bd 231f f53d a1c3 a63c
00000080: 9eca 40bd f791 adbd 4bd2 503d b7f0 9e3c
00000090: acc2 e0bd 8293 fc3d 28d2 123c 3e09 e03d
000000a0: b212 2fbd 0231 563d 273f 5b3d c97a f53d
000000b0: d7c1 0dbe fe11 d33d b243 ab3d 0056 49ba
000000c0: 37f4 b0bd 6ef2 f0bd bf77 f0bd f552 0f3d
000000d0: e67b d6bb 02ab 7b3d 6fec 703d ff3a 29bb
000000e0: ffd5 243d b6b4 08be a4f9 84bd 01ce 0abe
000000f0: e48b f53d 8a51 b8bd 7f3f 3a3d 0088 acba
00000100: f4d6 3b3d 74f8 b4bd 0c9d 9a3c ca84 1abc
00000110: a899 d3bc cba0 0cbe ba8f 6a3d 2c01 473d
00000120: ea0a 3d3d fea3 3fbd 3661 6ebd 3075 cebd
00000130: 61f6 633d 6245 a13d 1341 06be ef1b a33d
00000140: 66cb 023e cb6a fdbd 4d54 cb3d 36a4 c0bd
00000150: 1d34 753c ed45 013e 10e5 ddbd acc6 653b
00000160: bb23 07be 3b99 e3b9 4926 a23d ccf4 9e3d
00000170: b448 78bd 329b d4bd 299c 093e d3b4 e23c
00000180: 1eb7 acbd 26c6 f9bc c067 a3bd fa53 743d
00000190: a895 babd 47f2 0abe 00a9 74ba d3fc 09be
000001a0: 7f48 00be 2f4f e33d d7a4 a8bd 511c c2bc
000001b0: 0cbb 133d 0fb3 3ebc 8fd3 08be f60a 33bd
000001c0: 25bc ae3d 908a 6bbc 695b 003e d6ad 483d
000001d0: a419 113e ba41 eebd 4164 5a3d da58 c03d
000001e0: a345 653d 4423 4c3d 47e0 333d 0095 f9bb
000001f0: 860b 2f3c 9f6a 0dbe 6f57 a83d 9445 ccbd
00000200: b26e 3f3d 0f0b 4c3d 00d9 343a a6e1 113e
00000210: 0e61 d03d 6139 c43d 7337 b5bd 1494 76bd
00000220: 64fd 8dbd a2f6 30bd a08b 66bd 56f3 adbd
00000230: c50c 183e fb2d a13d c5b5 813d 8223 ef3d
00000240: 0262 a0bd c7d4 a7bb a6d6 ba3d de7e 06bd
00000250: 4b70 0cbe 9033 73bc 0080 e436 24e0 1fbd
00000260: 3fc7 ac3c f8c0 0a3e b163 1abd 12d5 cfbd
00000270: b254 cc3d d23c 04be 742a b63d 3d38 073e
00000280: 5783 dfbd 3bb1 443d 5440 fb3c b9d1 8abd
00000290: 28b3 a3bd 8eb9 713d fbfb 8a3d 44c4 babc
000002a0: 0388 da3b 7cd3 7abd 85f7 e6bd 0e58 da3c
000002b0: fa87 b53d acaf fabd 8472 043e 9e97 0dbe
000002c0: c6d9 6c3d 4cc8 f03d 71dd f43d ee65 743d
000002d0: 37e1 98bd c0e6 113b b169 073e dc9d 983d
000002e0: 4117 e4bd 4851 0a3e d539 ec3d de6f 4bbb
000002f0: 6f65 36bd a1f7 f33c 951a eabc b043 57bc
00000300: 2954 00be 3a86 06be 3a51 0f3d 8480 10be
00000310: a7d0 823d 4414 ebbc e452 d8bd 79a7 063e
00000320: a9f3 9e3d 78f6 aebd 8002 e2bd 0da4 81bd
00000330: 9ebe f23d 1494 c9bd 184f b6bd 8017 73bc
00000340: 94b5 a0bb 1c1b 133e e7fe ed3d 0138 ffba
00000350: 7127 04be 1705 923d c9fa eb3c 45a8 bc3d
00000360: 018a 833d e053 59bd d076 7ebd 6525 b13d
00000370: fedb aabd 7871 b23d 8d12 383d 846a c3bc
00000380: a7e3 873d 6238 a0bd 29ef 4b3d b4a5 e9bc
00000390: e116 c8bd e02d a5bc acc6 6fbd 8095 7a3b
000003a0: 1431 89bc c092 2e3c 6ccf 2dbd 1a4f cabd
000003b0: 6b05 903d 1f70 99bd b2de 163e 3b1f 413d
000003c0: 8066 01be d340 c3bd 3160 05be 46a3 eb3d
000003d0: b730 c9bd 8396 02be 3def e0bd fa8a e9bd
000003e0: 01d1 8dbd c467 a2bd 4198 3a3d 7223 efbd
000003f0: e4ff 68bd c17f fbbd 8071 f6bb da2d a6bd

fc2.weight f4 [100, 500]
0.011335775 -0.043173674 -0.012935221 0.004808761 -0.018154614 -0.04257089 -0.01579593 0.0129618235
0.02702101 -0.03225447 -0.02936211 0.0004696399 -0.010229189 0.018724974 0.008998584 -0.031040005
0.015002627 -0.034794077 0.0015382171 -0.014935911 0.022050489 0.043646608 0.04301176 -0.005418442
0.020006586 -0.030312376 0.006306555 -0.032444023 0.023569476 0.030341629 0.017098922 0.005592495
0.001954008 0.03384116 0.013843045 0.031757105 -0.038531482 -0.016276505 -0.0282801 0.025441442
0.012050085 0.0317364 -0.034544118 0.027820032 0.023969885 0.023824748 -0.04237213 -0.010965742
-0.02950383 -0.024924258 -0.010438334 0.025244292 0.020873595 0.041460667 -0.015065683 0.016046956
0.0378594 -0.01453243 0.040192265 0.0016603433 -0.011204496 0.003750559 0.03699779 0.043558378
0.042759057 0.024833363 0.013340913 0.001619976 0.0013753213 -0.021505546 0.0026992187 -0.014091587
-0.037482042 0.021378469 -0.041300565 0.02306154 -0.035102338 -0.03537868 0.019445855 0.0110060945
-0.043289635 0.010962352 0.03346977 0.0052278787 0.0289586 -0.044485338 -0.003822349 -0.011589639
-0.035834335 0.020775136 -0.027329553 -0.016657084 -0.007905059 0.03343944 0.037523996 -0.0046764836
0.012100659 0.021195177 0.027104985 -0.01867698 0.030343216 -0.013032395 0.014535315 -0.024915013
-0.011306908 -0.04461542 0.023477327 0.021350656 -0.032259658 -0.012502018 0.017111141 0.039691847
-0.013839858 0.0026974156 -0.0014638901 -0.030235905 0.015852366 0.031311538 0.033213872 0.026299704
-0.02788098 0.008206703 -0.0060796477 0.039919343 0.011188243 -0.0109284 -0.014403777 -0.02953545
0.037415218 0.042104993 -0.014809914 0.03270377 -0.008429188 0.015839878 0.015714202 0.03675743
0.0148342885 -0.022559166 -0.03582025 -0.008729849 -0.019628396 -0.017702276 -0.0028023422 0.008515138
-0.025851967 -0.0036107972 -0.022425257 0.0169487 0.005258329 -0.017694557 -0.015840814 0.040019993
0.027799938 0.013582688 -0.035437237 0.0013650097 -0.017079053 -0.027485149 -0.025065396 -0.028286664
0.02507266 0.01974966 0.007393848 -0.000424698 0.0019862019 0.0286807 0.029069629 -0.0069480874
-0.0072701424 0.016723808 0.043732587 -0.042324174 -0.040432073 -0.038709614 0.0047756843 -0.027608518
-0.02652212 0.025943104 0.010322694 -0.0072335936 0.01462993 -0.011331815 -0.012601003 0.011650413
0.034899574 0.029126246 0.027833764 -0.0351061 -0.04281809 -0.040006552 -0.041586872 -0.0020439774
-0.03293725 0.015925884 0.017218988 0.020228941 0.004941866 0.0007847622 -0.039898302 -0.026094558
-0.0052050613 -0.044096015 0.027150352 0.0025215633 -0.03254749 -0.03685014 -0.03664345 -0.03351799
0.04025503 -0.04200284 -0.03255673 -0.015915109 0.037005823 0.01607569 0.026853036 -0.040029716
0.0132608265 0.0096716955 -0.028075868 -0.022120526 -0.018504068 -0.019438958 0.044116225 0.03685164
0.011298865 -0.015890004 0.0030936971 0.044662084 0.02287658 0.00066513196 -0.039526064 0.0069642067
-0.01996061 0.038866613 -0.03253062 -0.027443027 -0.00402575 0.019505654 -0.008529939 -0.012896769
0.01377986 0.026686918 -0.03584811 0.013603389 0.03774399 -0.027380493 -0.04290914 0.014014855
0.012921561 -0.03943259 -0.02136204 0.0319235 -0.02102683 0.026522826 0.017718878 -0.030441178
00000000: b0b9 393c e1d6 30bd 40ee 53bc d092 9d3b
00000010: fcb8 94bc d05e 2ebd 7766 81bc d45d 543c
00000020: 2a5b dd3c 431d 04bd cf88 f0bc 003a f639
00000030: 5498 27bc 1e65 993c cc6e 133c 9c47 febc
00000040: 94cd 753c 3c84 0ebd 009e c93a c0b5 74bc
00000050: 3aa3 b43c c9c6 323d 192d 303d 308d b1bb
00000060: dae4 a33c a951 f8bc 38a7 ce3b 06e4 04bd
00000070: c614 c13c 028f f83c 0a13 8c3c 4041 b73b
00000080: d00e 003b 079d 0a3d f0cd 623c bd13 023d
00000090: 30d3 1dbd 4e56 85bc abab e7bc 926a d03c
000000a0: b86d 453c 07fe 013d 227e 0dbd d6e6 e33c
000000b0: 7e5c c43c 1e2c c33c 668e 2dbd a8a9 33bc
000000c0: 04b2 f1bc f52d ccbc 8c05 2bbc 1ecd ce3c
000000d0: 1aff aa3c a9d2 293d 0ed6 76bc e874 833c
000000e0: 7512 1b3d 6e19 6ebc a5a0 243d e09f d93a
000000f0: 1093 37bc f0cb 753b ff8a 173d 456a 323d
00000100: 1f24 2f3d 566f cb3c d893 5a3c 6055 d43a
00000110: 2044 b43a 662c b0bc 60e5 303b 66e0 66bc
00000120: c586 19bd e621 af3c c82a 29bd 8eeb bc3c
00000130: 78c7 0fbd 3ce9 10bd ea4c 9f3c e852 343c
00000140: 7950 31bd 709b 333c 9917 093d a04e ab3b
00000150: 963a ed3c 4236 36bd 6080 7abb 78e2 3dbc
00000160: 06c7 12bd 9e30 aa3c 3ae2 dfbc 7074 88bc
00000170: 3884 01bc cbf7 083d c3b2 193d 303d 99bb
00000180: d841 463c 82a1 ad3c 460b de3c 7700 99bc
00000190: 5692 f83c d485 55bc 8825 6e3c 921a ccbc
000001a0: 9c40 39bc a9be 36bd 8653 c03c 92e7 ae3c
000001b0: b422 04bd 44d5 4cbc aa2c 8c3c eb93 223d
000001c0: 92c0 62bc 20c7 303b 00e0 bfba 4ab1 f7bc
000001d0: d2dc 813c 8740 003d 450b 083d 7a72 d73c
000001e0: a766 e4bc 6875 063c c837 c7bb 7782 233d
000001f0: e44e 373c 080d 33bc d2fd 6bbc 54f4 f1bc
00000200: b340 193d 4976 2c3d 48a5 72bc 63f4 053d
00000210: 941a 0abc a2c2 813c 12bb 803c f58e 163d
00000220: 840b 733c 00ce b8bc 41b8 12bd a407 0fbc
00000230: bbcb a0bc 5d04 91bc 80a7 37bb 1483 0b3c
00000240: 81c7 d3bc 20a3 6cbb 2cb5 b7bc 00d8 8a3c
00000250: 104e ac3b 2df4 90bc 98c4 81bc 01ec 233d
00000260: b2bc e33c ec89 5e3c a326 11bd 20ea b23a
00000270: 5fe9 8bbc 8928 e1bc f255 cdbc 6fb9 e7bc
00000280: 2e65 cd3c 0aca a13c 1848 f23b 00aa deb9
00000290: f02a 023b caf3 ea3c 6e23 ee3c c8ac e3bb
000002a0: 603a eebb 5e00 893c f120 333d 1d5c 2dbd
000002b0: 1a9c 25bd f98d 1ebd 587d 9c3b 422b e2bc
000002c0: eb44 d9bc a286 d43c 8420 293c c807 edbb
000002d0: 60b2 6f3c 14a9 39bc 7074 4ebc 60e1 3e3c
000002e0: dbf2 0e3d 2a9a ee3c a203 e43c 6acb 0fbd
000002f0: 0662 2fbd e9dd 23bd ff56 2abd 40f4 05bb
00000300: 36e9 06bd 0077 823c d60e 8d3c 2ab7 a53c
00000310: 60ef a13b 80b8 4d3a 676c 23bd 41c4 d5bc
00000320: 388f aabb 069e 34bd 6a6a de3c d040 253b
00000330: 8450 05bd 2cf0 16bd 7117 16bd 294a 09bd
00000340: 75e2 243d 2c0b 2cbd 355a 05bd 6760 82bc
00000350: 6b93 173d 2ab1 833c e6fa db3c 33f6 23bd
00000360: f043 593c 0876 1e3c 5dff e5bc 1b36 b5bc
00000370: d895 97bc 733e 9fbc 37b3 343d bff1 163d
00000380: e01e 393c c12b 82bc a0bf 4a3b 97ef 363d
00000390: aa67 bb3c 405c 2e3a 15e6 21bd 0034 e43b
000003a0: 6f84 a3bc 9932 1f3d d43e 05bd 33d0 e0bc
000003b0: 70ea 83bb 52ca 9f3c 28c1 0bbc f84c 53bc
000003c0: ecc4 613c 869e da3c 78d5 12bd c0e0 5e3c
000003d0: 7199 1a3d 0e4d e0bc 7fc1 2fbd 909e 653c
000003e0: f4b4 533c 1184 21bd 72ff aebc 37c2 023d
000003f0: 7540 acbc 6646 d93c 2e27 913c c75f f9bc

fc2.bias f4 [100]
0.0056171715 0.021145144 0.0044051064 -0.011179931 -0.01858172 -0.01228641 0.033510126 0.0018242638
0.018899925 0.00038683377 -0.0030699335 0.007943839 0.04768905 -0.020314181 0.019989224 -0.02496595
-0.006268561 -0.048630867 -0.011154424 0.0140879415 -0.011116132 -0.023507161 0.0463881 -0.023960244
0.022070276 0.018560652 0.011039629 -0.025020843 0.017851982 -0.004382316 0.016594809 0.01175669
-0.03031252 0.0033857853 0.0078846775 0.016359584 -0.03268143 -0.035291538 -0.017639203 0.023186484
-0.02370938 -0.019134333 0.037538175 0.038772807 -0.008265022 -0.007419817 0.036153365 0.015329786
0.007145073 0.010964759 0.009008026 0.034738045 0.033227824 0.008648504 -0.0017436671 -0.009532023
0.024516156 0.013001181 -0.006926041 0.03201012 -0.0010021292 -0.024089335 0.0041927733 0.0142705
-0.041582387 -0.0363154 -0.032999564 -0.0445664 0.036849357 -0.03148384 0.00515437 0.04474465
-0.021326112 -0.02533495 -0.03475783 -0.02679631 -0.02602706 0.0039325617 -0.0400289 -0.0052890815
-0.01240189 0.029498123 -0.029944113 0.012566611 0.018031329 0.039102033 0.027874677 0.011632114
0.030716162 0.02640223 -0.029778333 -0.00087032735 -0.036901593 -0.032357804 0.017339004 0.019698896
0.04170287 0.026634568 0.020763874 -0.009773227
00000000: 4010 b83b 9538 ad3c b658 903b 082c 37bc
00000010: b138 98bc f04c 49bc ea41 093d 231c ef3a
00000020: 04d4 9a3c f3cf ca39 f030 49bb e026 023c
00000030: 9855 433d ed69 a6bc 71c0 a33c 6485 ccbc
00000040: 8068 cdbb 2931 47bd 0cc1 36bc 1cd1 663c
00000050: 7020 36bc 1792 c0bc 7301 3e3d 4648 c4bc
00000060: b9cc b43c 820c 983c 8fdf 343c 83f8 ccbc
00000070: 523e 923c 8899 8fbb d6f1 873c 229f 403c
00000080: f651 f8bc 0de4 5d3b bc2e 013c 8904 863c
00000090: f7dc 05bd dc8d 10bd 1780 90bc 95f1 bd3c
000000a0: 2c3a c2bc 9bbf 9cbc a1c1 193d 3cd0 1e3d
000000b0: 046a 07bc f021 f3bb 8d15 143d c829 7b3c
000000c0: 3721 ea3b 88a5 333c 6696 133c 7b49 0e3d
000000d0: e619 083d 74b2 0d3c c28b e4ba 342c 1cbc
000000e0: 1bd6 c83c e802 553c d8f3 e2bb 0b1d 033d
000000f0: e059 83ba ff56 c5bc 8863 893b d1ce 693c
00000100: 4b52 2abd 75bf 14bd 8d2a 07bd 428b 36bd
00000110: 5aef 163d 33f5 00bd fde5 a83b 2b46 373d
00000120: 19b4 aebc 3e8b cfbc 3a5e 0ebd ef83 dbbc
00000130: b336 d5bc b8dc 803b 58f5 23bd 0850 adbb
00000140: 4c31 4bbc 0ca6 f13c 5b4d f5bc 30e4 4d3c
00000150: 70b6 933c 7429 203d 6f59 e43c 9f94 3e3c
00000160: 76a0 fb3c 7d49 d83c b1f1 f3bc ae26 64ba
00000170: 2026 17bd 9e89 04bd 870a 8e3c 945f a13c
00000180: a1d0 2a3d bd30 da3c 0019 aa3c e31f 20bc

fc3.weight f4 [1, 100]
-0.044744875 0.063171886 -0.0047471486 0.09193022 -0.06769261 -0.06889267 -0.041597296 0.08312263
-0.03908095 0.042533614 0.05701018 -0.08107211 -0.05268302 0.052945085 0.08072669 0.08773333
0.070786424 0.008705691 -0.077708304 0.06881278 0.05994571 -0.012943387 -0.08561374 -0.0063794404
-0.08856432 -0.004833455 -0.10294681 0.09539615 0.057410825 -0.096829824 -0.08194293 0.08611068
0.09406442 0.010250852 -0.025337003 -0.015758064 -0.08236031 -0.082665265 -0.0768258 0.041555893
0.005598018 0.06394387 0.01606801 -0.02517574 0.09963717 0.01908128 -0.08757126 -0.009470396
0.027662084 -0.016715081 -0.087995484 -0.09272705 0.08327424 0.00946255 -0.0033064142 0.0939352
-0.07162138 -0.03986472 -0.07011042 0.035479438 0.02327361 0.032273322 0.026516803 0.03139098
-0.03085661 -0.02248466 -0.042387486 -0.06434831 -0.026271872 0.06187705 -0.032713078 -0.106526785
0.06276483 0.080455884 0.0015283823 -0.091544285 -0.0895439 0.08525366 0.033762187 -0.06449267
-0.052851237 0.044561826 0.08248367 -0.03539513 0.073907465 -0.023918606 -0.04135014 0.0006246183
-0.065453686 -0.051073737 0.010657094 0.069001086 0.025580265 -0.09654596 0.04126117 0.05349849
-0.05290077 -0.02021544 0.020330539 0.040262267
00000000: 6746 37bd 4360 813d f88d 9bbb e945 bc3d
00000010: 6ca2 8abd 9a17 8dbd ed61 2abd 333c aa3d
00000020: 5913 20bd ba37 2e3d 8283 693d 2209 a6bd
00000030: 26ca 57bd f2dc 583d 0954 a53d 88ad b33d
00000040: 79f8 903d 51a2 0e3c 8825 9fbd b7ed 8c3d
00000050: a289 753d 8010 54bc 4256 afbd a00a d1bb
00000060: 3661 b5bd f661 9ebb c7d5 d2bd 0f5f c33d
00000070: 9d27 6b3d b74e c6bd b2d1 a7bd cc5a b03d
00000080: d9a4 c03d 31f3 273c 8c8f cfbc 0e17 81bc
00000090: 86ac a8bd 684c a9bd d856 9dbd 8336 2a3d
000000a0: 946f b73b 01f5 823d 0fa1 833c 5a3d cebc
000000b0: 930e cc3d 5850 9c3c 9058 b3bd b829 1bbc
000000c0: 989b e23c 11ee 88bc fa36 b4bd aee7 bdbd
000000d0: af8b aa3d d008 1b3c 6db0 58bb 1961 c03d
000000e0: 3bae 92bd 3049 23bd 0d96 8fbd e352 113d
000000f0: 4ca8 be3c 0831 043d c439 d93c d493 003d
00000100: 00c7 fcbc c031 b8bc 809e 2dbd 0cc9 83bd
00000110: 1c38 d7bc ca72 7d3d 26fe 05bd b72a dabd
00000120: d98a 803d 0ec6 a43d 0054 c83a 927b bbbd
00000130: cb62 b7bd 7999 ae3d 384a 0a3d bc14 84bd
00000140: 8a7a 58bd 7686 363d 33ed a83d 7cfa 10bd
00000150: cc5c 973d f4f0 c3bc c45e 29bd 6dbd 233a
00000160: 950c 86bd b232 51bd 189b 2e3c 7150 8d3d
00000170: b48d d13c e3b9 c5bd 7901 293d 3c21 5b3d
00000180: 7aae 58bd da9a a5bc 3b8c a63c 0cea 243d
