models/Dmodel1_max.pth (torch_old, 303900 bytes, 5 tensors)

fc1.weight f4 [500, 50]
000000 10 c0 57 3c 50 7c 49 bd b8 b7 9d 3d 24 cb 74 3d
       0.01316835 -0.04919082 0.07701057 0.059764042
000010 50 43 5d 3c 4b 65 08 3e f8 78 1e 3d c0 fb c8 bb
       0.013504818 0.1331989 0.038689584 -0.0061335266
000020 36 fd c7 3d 23 18 00 be b8 1f c5 3d 18 94 df bc
       0.09765093 -0.12509207 0.096251905 -0.027292296
000030 1c 80 cb 3d 00 1e 2e ba 44 7c c7 3d 48 1f 82 bc
       0.09936544 -0.00066420436 0.09740499 -0.015884057
000040 d6 5d f6 bd 20 87 d9 3d d4 74 b4 bd c3 89 80 bd
       -0.120296165 0.10621476 -0.08811346 -0.06276276
000050 22 cf 2a bd ce 1a ee 3d 40 dc 39 3d 39 86 fd bd
       -0.041701443 0.11626206 0.045376062 -0.123791166
000060 5e a2 82 3d 32 dc 23 bd 09 77 0c 3e dc 3d 24 3d
       0.06378625 -0.040004916 0.13717283 0.040098056
000070 10 29 5a 3c 24 9f 01 be 74 69 c5 bc 88 e1 cb 3c
       0.013315454 -0.12658364 -0.024098136 0.024887815
000080 58 1f 12 bd a8 99 47 3d 32 9c 46 bd 5c 19 e0 bd
       -0.035674423 0.048730522 -0.048488803 -0.10942337
000090 e8 20 16 3d d0 dd 6b bd 48 79 9b 3d 00 2e 7e bd
       0.036652476 -0.057584584 0.07591492 -0.062055588
0000a0 4a 94 26 bd 50 50 36 3c 2f 64 05 3e 44 6a 4a 3d
       -0.040668763 0.011127546 0.13026498 0.04941775
0000b0 26 9a ce bd 9c 98 ad bd 14 d9 54 3d f8 8e c6 3c
       -0.10087995 -0.084763736 0.051964834 0.024238095
0000c0 e1 72 09 3e e4 e8 c8 3d e8 5c cf bc b4 50 91 3d
       0.13422729 0.09810045 -0.025312856 0.07095471
0000d0 9d 13 03 3e 02 4b ba 3d 3c 07 a9 3d fa 9e 01 be
       0.1280045 0.09096338 0.08253333 -0.12658301
0000e0 30 b6 71 3c 48 12 0c be ac c7 96 3d b0 84 44 bd
       0.01475291 -0.13678849 0.07362303 -0.047978103
0000f0 6a ff 9b bd 27 d7 06 3e a8 2c 0b 3d c0 ec b0 bb
       -0.07617076 0.13168012 0.033978134 -0.0053993165
000100 25 d1 a2 bd 3e 60 5f bd 58 74 50 3d 0c 66 7c 3d
       -0.079500474 -0.054535143 0.050892204 0.061620757
000110 80 70 fc bc 80 fe 5a 3b b0 fc 3c 3d 9a e4 e5 3d
       -0.030815363 0.0033415854 0.04613942 0.11225243
000120 d6 c5 e2 3d f7 e7 a3 bd 9c ce 2b bd e0 81 46 bd
       0.110728905 -0.08003228 -0.041945085 -0.048463702
000130 9e 4c e9 3d 7a 1c ee bd 00 88 ce 3d 8a f5 dc bd
       0.11391567 -0.11626525 0.10084534 -0.1078902
000140 30 8a 5c 3d 7e 0e f0 3d 21 a4 81 bd c6 0e fd 3d
       0.053842723 0.11721514 -0.06330133 0.123563334
000150 e2 b0 30 bd 00 f2 92 3b 20 98 b0 3d 61 94 10 be
       -0.04313744 0.004484415 0.086227655 -0.14119102
000160 7a 46 07 be 0a ab 28 bd c9 27 02 be 9e 35 d4 bd
       -0.13210478 -0.04117874 -0.1271049 -0.10361789
000170 16 3b a4 bd ce b7 e2 3d 52 ad 8f 3d 20 3f 08 bd
       -0.08019082 0.11070214 0.0701548 -0.033263326
000180 c8 fa 69 3d c0 23 51 bb 3a b9 09 bd 9a 3a 54 bd
       0.05712393 -0.0031912178 -0.03362391 -0.0518137
000190 53 f2 ac bd 2e 13 fa bc 85 19 b5 bc 40 f6 e7 bc
       -0.08444657 -0.030526724 -0.022106895 -0.028315663
0001a0 04 ea 06 bd 62 26 a1 3d 29 f4 d4 3d 49 f9 4c 3d
       -0.03293802 0.07868649 0.10398132 0.050042424
0001b0 5b 3a e2 bd 4d 68 07 3d a1 0c 90 bd c6 80 89 bd
       -0.11046287 0.033058453 -0.07033659 -0.06714015
0001c0 df 05 ae bd 3b b8 9c bd 85 35 ce 3d d2 31 d8 3d
       -0.084972136 -0.07652327 0.10068802 0.105563775
0001d0 9b e1 fc 3d a1 78 91 bd 47 c6 b4 3d 70 3b ad 3d
       0.12347718 -0.07103086 0.08826881 0.084586024
0001e0 c1 6d df 3d 8b e6 6c 3c 23 ab da 3d 4d 99 ef 3d
       0.10909606 0.014459263 0.10677173 0.11699162
0001f0 26 37 83 3c 66 8a 2c 3d 74 3a 03 be a3 08 61 bd
       0.016017508 0.042124175 -0.12815267 -0.054939877
000200 75 d5 c3 bd 17 26 ea 3d a7 11 0e bd 4d 28 4c bd
       -0.09562198 0.11433046 -0.034684803 -0.04984312
000210 14 d1 fc bd e5 c9 6a bc 50 62 a9 3d 4e 8b 04 be
       -0.12344566 -0.014330362 0.08270705 -0.12943766
000220 76 1d 0c 3d 1e fc d6 bb 6d 98 19 3d 7b ae c9 3c
       0.034207784 -0.0065608164 0.03749888 0.024619332
000230 2c b0 bb 3d fe b4 8b bd 67 1a 00 be 55 bf 0b 3d
       0.091644615 -0.06821631 -0.12510072 0.034118015
000240 81 c4 dd bd 63 57 cc bd da 2c 38 bd 0d 02 be 3d
       -0.10828496 -0.09977605 -0.04496465 0.09277735
000250 d3 3f 7d 3d ed 7c d6 bd ef 01 a5 bd 60 ca 19 3c
       0.061828446 -0.104730465 -0.080570094 0.009386629
000260 f4 69 b4 bc 81 0a 9f bd d1 ff 07 be 9c bb de bc
       -0.022023179 -0.07765675 -0.1328118 -0.027189068
000270 c8 f1 a5 3c dc d1 87 bc c9 69 97 bd 88 1a dd bd
       0.020256892 -0.016579561 -0.07393224 -0.10796076
000280 82 38 be 3d 12 db e2 3d 80 e9 b2 3a a6 1e 48 bd
       0.09288122 0.110769406 0.0013649911 -0.048857354
000290 30 7c 56 bc 40 44 30 3b 98 f4 36 3d 5e ff 1c bd
       -0.013091132 0.002689615 0.044666857 -0.038329475
0002a0 c0 58 d1 3c 20 1e a4 bc 58 52 81 bd e7 53 10 3e
       0.025555015 -0.020033896 -0.06314534 0.14094506
0002b0 3e 14 cc bd f2 54 7e bd 48 7b bd 3d 66 31 ae bd
       -0.099647984 -0.06209273 0.0925203 -0.08505516
0002c0 be 1e 98 3d 3e 81 f9 3d 64 44 27 3d da 91 cd bd
       0.074277386 0.12182854 0.040836707 -0.100375846
0002d0 d8 36 31 3d 6c f7 68 3d 4a b8 81 3d 20 c4 bd 3c
       0.043265194 0.056876585 0.063339785 0.023164809
0002e0 5a 38 07 be 94 f3 86 bd 0a e2 d1 bd 84 ea 28 3d
       -0.1320509 -0.065894276 -0.10248192 0.041239277
0002f0 5a 01 73 bd aa 73 ce 3d 5c 28 3f 3d 80 05 67 bc
       -0.05932746 0.10080655 0.04666935 -0.014100432
000300 80 e7 58 bb 88 88 a9 3d e8 20 de 3c 08 ff a6 bd
       -0.003309697 0.082779944 0.0271153 -0.08154112
000310 b9 94 0d 3e a1 7d ea bd d8 66 8c 3c 12 3c f5 3d
       0.13826264 -0.11449743 0.017138883 0.11974348
000320 44 cd 22 bd 56 1d 95 3d a0 67 8c bc 27 72 08 3e
       -0.039746538 0.07280986 -0.017139256 0.13324796
000330 40 18 87 bd a0 8c 16 bd c0 39 85 3b 8e 6c fa 3d
       -0.06596422 -0.036755204 0.004065722 0.122277364
000340 b0 65 b6 bc ec ae cc 3d d3 fa 0b 3e a4 2d 39 bd
       -0.022265285 0.09994301 0.136699 -0.045209542
000350 98 6d 6b bd 2c 36 c9 3d f0 79 c6 3d fc 6c 7e bd
       -0.057477564 0.098247856 0.096912265 -0.062115654
000360 8e 48 9b 3d cc da ae bc 24 41 8e 3d e8 bb b8 3c
       0.07582198 -0.021344565 0.06946018 0.022550538
000370 35 33 08 3e 64 ab b1 bd 00 45 9e 3c 70 fe e4 3c
       0.13300784 -0.08675268 0.019320011 0.027953357
000380 6c 05 38 bd 70 4f 9a 3c f2 08 b8 3d c8 b5 02 be
       -0.044927046 0.018836707 0.08986081 -0.12764657
000390 e4 ec 9f bc f4 c7 bf 3d e8 89 c4 bc 4c dd 1d 3d
       -0.019522138 0.0936431 -0.02399154 0.038541123
0003a0 5f b5 0b 3e ee 45 c6 3d c0 02 4a bd f0 55 3a 3c
       0.13643406 0.09681307 -0.04931903 0.011373028
0003b0 e0 6a bd 3c 7b fe 89 bd 8f 7e be bd 50 70 f2 bd
       0.023122251 -0.067379914 -0.09301483 -0.11837828
0003c0 de f6 e7 bd f0 48 a4 3c ba 4e fb bd 76 39 a4 3d
       -0.11326383 0.02005431 -0.12270875 0.08018772
0003d0 3a 63 c1 3d 5a 07 c7 bd d2 99 59 bd 34 59 6a bd
       0.09442754 -0.09718199 -0.05312521 -0.057213977
0003e0 fa e5 97 bd d4 1c b2 bd c0 d6 75 3c 6d 7e d5 bb
       -0.074169114 -0.08696905 0.015004814 -0.0065153153
0003f0 d0 6a 75 bd 17 ac 2c 3c de 8e c2 3d 97 9c 3a 3d
       -0.059916317 0.010539076 0.09499906 0.045559492

fc1.bias f4 [500]
000000 ef 9f f5 bd c1 d8 0d be ba 3e 10 3d 0e 72 1a bd
       -0.119933955 -0.13852216 0.03521607 -0.037706427
000010 62 e1 f9 bd f7 4b c1 3d 76 c0 86 bd 3d a3 36 3d
       -0.122011915 0.09438317 -0.06579678 0.04458927
000020 9e ec de bd 79 54 51 3b c0 06 a8 bc 68 67 e3 3d
       -0.10884975 0.0031941219 -0.020511031 0.111037076
000030 4f 23 e5 bd 4a 1e a3 bd d6 8f a3 3d d7 a9 ec bd
       -0.11188375 -0.079647616 0.07986419 -0.11555832
000040 40 ce d3 bd 48 36 ba 3d 9f c2 01 3d 89 69 c8 3c
       -0.103420734 0.090923846 0.031679746 0.024464386
000050 c1 3c 78 3c 64 bc 51 3d a8 f2 66 3d ba 7b b2 bb
       0.015151204 0.051205054 0.05638376 -0.0054468783
000060 3a 2e ae 3d 1e 66 13 3e 68 ec f4 bc 24 8a 43 bd
       0.08504911 0.14394423 -0.029897884 -0.047739163
000070 88 b8 78 bd 5a 79 e1 3d d7 04 72 3c da 1b b2 3c
       -0.060722858 0.11009474 0.014771662 0.021741796
000080 cf 64 ac bd e0 1f cd bb c2 76 27 3d 67 c5 93 bd
       -0.08417665 -0.0062599033 0.04088474 -0.07215386
000090 f2 48 b9 bd 7f 66 04 3d 63 b1 08 3e ec 43 ea bc
       -0.09047116 0.03232431 0.13348918 -0.02859684
0000a0 57 7a 0f 3e f1 33 92 bd f4 6f e8 3d 3c 3f 5f bd
       0.14011513 -0.07138813 0.11349478 -0.054503664
0000b0 59 62 04 3e 80 b0 b2 3b 43 37 f5 3b 5d 27 08 3e
       0.12928142 0.0054531693 0.0074833944 0.13296266
0000c0 3c cd 32 3d da ed 35 bd 57 16 c0 3d c0 78 4d 3b
       0.043652758 -0.044416286 0.09379261 0.003135249
0000d0 e0 26 5c bc d8 e9 78 3d 8a b8 aa 3d 32 f8 69 3d
       -0.013437003 0.060769886 0.08335979 0.057121463
0000e0 b0 d3 2e 3c 72 62 10 bd a1 a8 16 3e b5 db b2 bd
       0.010670587 -0.035250135 0.14712764 -0.08733312
0000f0 b6 c4 0a be ca da 00 be c4 fa 84 bd a8 f4 fb 3c
       -0.13551602 -0.12583461 -0.06493142 0.03075631
000100 a6 ab cb 3d 40 12 70 3c 40 41 27 bd fd 1b f8 3c
       0.09944849 0.014652789 -0.04083371 0.030286783
000110 b5 6e e8 3d 5c 98 0a bd b0 e2 43 3c 45 b8 06 be
       0.11349241 -0.033836707 0.011955902 -0.13156231
000120 d0 8e 16 bc 11 ee 14 3d 26 d4 77 bd 92 af 46 bd
       -0.009189323 0.03635985 -0.060505055 -0.04850728
000130 88 a7 81 3c ad be 89 3d 86 72 f9 bd e0 8b e2 3b
       0.015826955 0.06725822 -0.12180047 0.006913647
000140 4c a4 b6 bd 34 01 d9 3d 5d e4 96 3d 27 60 89 bd
       -0.08918056 0.105959326 0.073677756 -0.06707793
000150 76 e2 aa 3d c3 cf 2f bc 98 68 93 bc 20 af 10 bd
       0.08343975 -0.010730687 -0.01799421 -0.035323262
000160 45 96 af 3d 23 31 17 3d d5 07 cc bd ae 1e ca bd
       0.085735835 0.036912095 -0.09962431 -0.09869133
000170 3e fc b3 3c 8f 25 a7 3d 86 32 25 bd 53 a3 d3 3d
       0.021970864 0.081614606 -0.040331386 0.10333886
000180 00 34 8b ba 62 05 5d 3d f8 17 9e 3c 08 b0 83 3c
       -0.0010620356 0.05396021 0.019298539 0.01607515
000190 f4 6c 03 3d c3 82 77 3d b4 bb f2 3d c2 6f ce 3d
       0.032086328 0.06042744 0.11852208 0.1007991
0001a0 fe ba 89 3b 1c c8 ce 3d 63 5b 33 3d c6 a9 f1 3d
       0.0042031994 0.100967616 0.043788325 0.1179996
0001b0 42 4e 23 3d a4 af 4c 3c 5c 70 d4 3d ca f5 6e bd
       0.039869554 0.012493048 0.10372993 -0.05833987
0001c0 94 de 08 be 90 83 ab 3d 5a 15 67 bd 98 84 43 3d
       -0.13366157 0.08374703 -0.056416847 0.047733873
0001d0 09 74 a3 3d 3f 58 f4 3d 76 88 9e 3d 10 d1 ac 3c
       0.07981116 0.11930894 0.077408716 0.021095783
0001e0 06 99 0c be 2a 1c 3e 3d 47 83 48 3d 9b c0 08 be
       -0.13730249 0.046413578 0.04895332 -0.13354723
0001f0 88 84 b5 3d 2a 29 60 3d 27 84 0a 3e bc fd ef bd
       0.08863169 0.054726757 0.13526975 -0.11718318
000200 64 1c 82 bd 10 0f f2 3c aa 76 96 3d e8 d7 5b bd
       -0.06353071 0.029548198 0.07346852 -0.0536727
000210 2c 45 98 bd fe ec a9 bd 0c 0d 9c 3d 6c 0a 0b be
       -0.074350685 -0.08297156 0.07619676 -0.13578194
000220 ea 53 93 3c e1 9e f7 bd 89 b3 05 be 9d 67 0d 3e
       0.01798435 -0.120908506 -0.13056768 0.13809057
000230 5f 45 1d 3d 35 ab 05 3e e2 e4 c4 bd 10 3c f7 bd
       0.038396236 0.13053592 -0.096139684 -0.12072003
000240 2e e8 82 bd 58 0f 79 bd 5d 94 be bd 4a 32 b5 bd
       -0.06391941 -0.06080565 -0.09305642 -0.088474825
000250 4f 4b 80 3d ce 97 36 bd 6b f1 04 be 63 6f a1 bd
       0.06264364 -0.044578366 -0.12982719 -0.078825735
000260 a4 4a b2 bd 60 1d 9c 3b a7 9c 95 bd e3 fd b9 bd
       -0.08705643 0.004764244 -0.0730527 -0.09081628
000270 b8 01 d0 bd 3a dc 6c bd 58 57 21 bd 7a 99 a0 bc
       -0.10156578 -0.057827212 -0.039389938 -0.019604433
000280 fa 8e 2a bc 19 88 50 3d 20 fb 5c bd bf dc cd 3d
       -0.010410065 0.050911043 -0.05395043 0.100518696
000290 17 75 97 bd 07 c3 27 3c 55 f5 a2 3d f8 72 06 bd
       -0.0739538 0.010239369 0.079569496 -0.032824486
0002a0 82 cd a7 3d a0 29 0a bd 68 a1 f7 3d 1d b9 94 bd
       0.081934944 -0.033731103 0.12091333 -0.0726187
0002b0 f5 5a 8e 3d 2e 70 e6 3b 04 58 ec bc c8 d5 71 bd
       0.069509424 0.007032416 -0.028850563 -0.05904177
0002c0 a0 4e 13 3c 58 c0 6d 3b 73 e9 91 bd 2c 30 d0 bd
       0.008990914 0.0036277976 -0.07124605 -0.10165438
0002d0 ab ee 57 3c b8 8a 21 bd da b9 f7 3d 5b 59 08 3e
       0.0131794615 -0.039438933 0.12095995 0.13315336
0002e0 c2 95 ed 3d 8b 51 e2 3d b9 98 23 3d b9 db 84 bd
       0.1160083 0.11050709 0.03994057 -0.06487221
0002f0 57 b4 c3 3c 31 88 55 3d f8 85 64 bd a9 b4 0c be
       0.023889704 0.052131835 -0.055791825 -0.13740791
000300 4e 15 00 bc 60 10 fd bd 23 65 59 3d 72 03 be 3d
       -0.007817579 -0.12356639 0.053074967 0.09278001
000310 8a 5b aa bc 9c 08 ee bd e8 8b b9 bc 05 8b 14 3e
       -0.020795602 -0.11622736 -0.02264972 0.14506157
000320 04 b6 6b 3d 37 2c a8 3d a1 6f 8e 3d 29 51 65 3d
       0.05754663 0.08211558 0.06954885 0.055985603
000330 c0 8b 78 bd 53 c8 97 bd 34 4e 0f be 97 fc 87 3d
       -0.06068015 -0.07411256 -0.13994676 0.066399746
000340 0e d7 46 3d 4c 37 d3 bc 96 9d e7 bd 87 29 8a bd
       0.048544936 -0.025783204 -0.11309354 -0.06746202
000350 49 46 a3 3d 92 4e ca bd d5 a6 bc 3d c9 67 96 3c
       0.0797239 -0.09878267 0.09211508 0.018360035
000360 72 0c f2 3c 4f 7a a1 3c 72 a8 0b 3e 9e dd 35 3c
       0.02954695 0.019711642 0.13638476 0.011100201
000370 35 93 87 bd b8 38 1b bd e1 be 88 bd 2b 1a ae 3c
       -0.066198744 -0.037895888 -0.06677032 0.021252712
000380 0a f4 b6 3d dc a7 0d 3d 36 f5 d7 bc ad cf 8e bd
       0.089332655 0.03458391 -0.026362043 -0.06973205
000390 63 5c 87 3d 55 f0 0b be ec 1c 8e 3d c6 42 0e be
       0.06609418 -0.13665898 0.0693911 -0.1389266
0003a0 20 14 19 bc 9c 2f 8a bd 29 62 86 bd 6e ab 98 3d
       -0.009343177 -0.06747362 -0.06561691 0.074545726
0003b0 f8 71 6b 3d 2d bc 09 be 5c 96 a8 bd 12 d6 0f be
       0.057481736 -0.1345069 -0.08231804 -0.14046505
0003c0 cd 99 ab ba 0e 50 e3 bd 60 b3 4a bc 68 75 ae bd
       -0.0013092101 -0.110992536 -0.012371868 -0.08518487
0003d0 02 d9 fd bd d5 0e 00 be 60 36 fd 3b 0e 3a 98 bd
       -0.123949066 -0.12505658 0.0077274293 -0.07432948
0003e0 c4 cb f6 bd ba be 5f bd 03 ce ed 3c 9a db 57 bd
       -0.12050584 -0.05462525 0.029028898 -0.052699663
0003f0 98 71 f7 bc 7a ca ab 3d 92 42 1a bd 76 98 0e 3e
       -0.030205533 0.08388229 -0.037661143 0.13925347

fc2.weight f4 [100, 500]
000000 c4 ce ed bc 1a f6 f3 3c 13 9d da 3c c6 ab ce bc
       -0.029029258 0.029780436 0.026686227 -0.025228392
000010 68 14 89 3b c2 a0 e2 3c 26 49 e4 bc fc 9b c3 3c
       0.004183341 0.027664546 -0.027866911 0.02387809
000020 bf 2c 01 bd b7 40 bf bc 68 71 5e bc 44 2e 0a bd
       -0.031536814 -0.023346288 -0.013576843 -0.03373553
000030 82 ac f2 3c fc 9d 5f bc a8 22 10 bd cd 23 fd bc
       0.029623274 -0.013648506 -0.0351893 -0.03090086
000040 59 43 30 3d cd 44 09 bd 86 32 5f 3c 46 d3 40 bd
       0.043032978 -0.03351288 0.013622886 -0.047076486
000050 0e 6c 08 3c fd c6 19 bd 67 b1 51 bd 3d 29 b9 bc
       0.0083265435 -0.037543286 -0.051194575 -0.022602672
000060 13 37 82 bc 6e 7e d7 bc f8 45 e9 bb 00 5e 21 3c
       -0.015895402 -0.026305404 -0.0071189366 0.0098490715
000070 c8 b7 7a bc 3d d7 ba 3c 45 c9 cf 3b 23 14 1b 3b
       -0.015302606 0.022807712 0.006341132 0.0023663125
000080 09 1a 25 3d c0 f3 6f ba 18 5b 78 3c 12 ef f3 3c
       0.040308032 -0.0009153448 0.015158437 0.029777084
000090 c9 10 34 3d 52 3e d0 bc fa 4d d1 bc 2a a0 db 3c
       0.04396132 -0.025420342 -0.025549877 0.02680977
0000a0 46 87 4d 3c 21 28 37 bd 65 ad 0d 3d 7d c0 13 bd
       0.012544459 -0.044716004 0.03458919 -0.036072243
0000b0 53 74 3d bd 3e 19 98 3c cf 72 8b bc d3 28 74 bc
       -0.046253514 0.018566724 -0.017022518 -0.014902311
0000c0 37 87 00 bd a6 53 c7 3c ab d4 aa 3c 69 70 0e 3d
       -0.03137895 0.024331879 0.020853361 0.03477517
0000d0 68 17 7e 3c 85 3f 3f bd 66 42 fb 3c 98 a2 5e 3c
       0.01550851 -0.046691436 0.03067131 0.01358857
0000e0 38 1e c3 3b c6 ef 56 3a ce 9c 26 bd a9 44 fb 3c
       0.00595453 0.0008199181 -0.040676884 0.030672388
0000f0 00 14 8d bc af 2f 20 bd 09 3b 35 3d 45 89 cd 3c
       -0.01722145 -0.039107975 0.044245753 0.02508987
000100 e9 e0 e9 bc 26 64 21 bd 15 26 74 3c cb a5 d9 3c
       -0.028549628 -0.03940215 0.014901658 0.026568314
000110 a0 d3 17 bd 08 29 0f bd ae 9d 86 3c ea 22 af 3c
       -0.037067056 -0.03495124 0.01643261 0.021378953
000120 d0 f4 09 bb f4 2d 22 3c 2f b9 d4 3c 9c b6 1f bd
       -0.002105046 0.009898651 0.025967209 -0.03899251
000130 a9 1d 2c bc 1f be 12 3c 0c da 53 bc e6 fe d1 bc
       -0.010505118 0.008956461 -0.012930404 -0.02563424
000140 3c 67 8b bc b2 88 e3 3c d4 76 c2 bc 8f ba 0b 3d
       -0.017017 0.027775142 -0.023738302 0.034113463
000150 1a d3 c1 3b d6 29 fa bb 0e 72 f4 3c 00 9f b5 bb
       0.005915058 -0.0076343818 0.029839542 -0.005542636
000160 00 f5 fa bc 04 3c f5 3b 92 0f 90 3c cc 3e f6 bc
       -0.030634403 0.007483961 0.01758555 -0.03005924
000170 9d 98 b6 bc 1d d6 fa 3c e3 26 c5 bc 8b 5a b8 bb
       -0.022289569 0.030619675 -0.024066394 -0.005626028
000180 3e 76 b0 3c 51 72 3e bc d2 73 ee 3c fc a0 36 bd
       0.021540757 -0.011623935 0.029107962 -0.04458712
000190 ba ab fd bc d8 01 a1 bc f5 56 71 bc ed 84 27 bd
       -0.030965675 -0.0196542 -0.014730205 -0.040898252
0001a0 e2 b7 89 bc 9a 5d 17 bd 0b 82 b7 bb da 69 1a bd
       -0.016811315 -0.0369545 -0.005600219 -0.037698604
0001b0 59 ec 85 3c a6 b8 ab 3c a3 86 97 3c a7 21 1b 3d
       0.01634805 0.02096207 0.018496817 0.03787389
0001c0 c6 ee 06 bd 75 01 24 bd e5 22 16 3d c1 ea 58 3c
       -0.032942556 -0.040040452 0.03665437 0.013239563
0001d0 56 de 36 bc 24 37 15 3d e3 69 80 3b ec f6 b8 bc
       -0.011161407 0.03642954 0.0039188727 -0.022578679
0001e0 de 6b 26 bd 95 06 35 bd 37 6a 2d bc 2c 60 44 bc
       -0.040630214 -0.04419573 -0.010584406 -0.01198582
0001f0 f9 00 e2 bc 5d 65 0c 3d dd f7 09 3d c8 61 20 bd
       -0.027588354 0.034276355 0.033683646 -0.03915575
000200 f9 6b be bc e6 50 be 3c b1 d6 0d 3d 5e 5a e3 3c
       -0.023244845 0.023231935 0.034628574 0.027753051
000210 fa cc 67 bc d8 b3 3e bc fd aa 4c bd a8 ca 3b 3c
       -0.014147991 -0.011639558 -0.049967755 0.011461891
000220 58 fc b7 bc 04 51 9d bc 99 fd 05 bd fe ce 33 bd
       -0.022459194 -0.01920367 -0.032712553 -0.043898575
000230 c7 f0 96 bc af dd f0 3b cb d6 c0 bc a8 ad 16 bc
       -0.018425358 0.0073506455 -0.023539921 -0.009196676
000240 87 d4 d4 bc f5 14 d5 bc 15 b7 00 3d 92 91 98 bc
       -0.025980247 -0.02601097 0.0314246 -0.0186241
000250 43 a6 3d bd 63 af 2d bd 68 2d 5d bc a1 7d 36 bd
       -0.046301138 -0.04240359 -0.013499595 -0.044553403
000260 f9 04 d1 bc 58 0f cc bb b0 d3 fb bc ae 13 f4 3c
       -0.025515066 -0.006227415 -0.030740589 0.02979454
000270 80 b3 f3 b9 b0 f0 62 3c 26 59 a8 3c b1 d0 d4 3c
       -0.0004648231 0.01385133 0.020550322 0.025978418
000280 3b 61 08 3c ae b2 32 bc 8e e6 f4 bc 44 2b 0e 3b
       0.008323963 -0.010906858 -0.029895093 0.0021693269
000290 31 94 01 bd 43 16 39 bc 16 e1 d4 3c e4 7f 68 3c
       -0.031635467 -0.0112968115 0.025986236 0.014190648
0002a0 78 e6 40 3c f8 6e 02 bd 57 c8 fd 3b c7 7c 29 bd
       0.011773698 -0.03184411 0.0077448296 -0.041378763
0002b0 99 22 89 3c 80 de 56 bc b6 a2 0e bd 7a 15 97 3c
       0.01674013 -0.013114572 -0.034823142 0.018442858
0002c0 c0 b6 9d 3b ef 0d 21 bc 00 eb 28 ba 30 7a 7f bb
       0.0048130453 -0.009829982 -0.0006443709 -0.0038982742
0002d0 0a fb bd 3c 80 c1 01 bd 07 c9 ee bc b9 e4 92 3c
       0.023190994 -0.031678677 -0.029148592 0.01793133
0002e0 14 4e 71 3c 86 52 50 bd 27 7a 0b 3d 22 ec 71 bc
       0.014728088 -0.05085995 0.03405204 -0.014765771
0002f0 79 8b fa bc 6b 03 f3 3c 85 8d 08 bd 58 dc 05 bc
       -0.030584084 0.029664716 -0.03333809 -0.00817021
000300 bc 29 09 3d b4 c8 f1 bc 8a 11 44 3b e5 90 23 bd
       0.033487067 -0.029514648 0.002991768 -0.039933104
000310 19 7d 3d bd 7e 24 a0 3c 8c f0 7b bc df 12 dd bb
       -0.04626188 0.01954865 -0.015377175 -0.0067466344
000320 34 14 16 3d 9a 0a a8 3c a9 bb 43 bd 02 1c d1 3c
       0.03664036 0.020512868 -0.04778639 0.02552605
000330 07 52 2a 3d e5 4d 29 3d 5a 3a c5 3c 82 e2 fb 3b
       0.041582134 0.04133405 0.024075676 0.007686914
000340 1b 89 90 3c 14 94 8b 3c 12 d4 1f bd 1e d0 be 3c
       0.017643502 0.017038383 -0.039020605 0.023292597
000350 2d 5a 02 3d 7c 56 07 bc 41 26 20 bd d8 e2 95 3c
       0.03182428 -0.008260366 -0.03909898 0.018296644
000360 8f 04 0e bc bc d3 b3 3c 31 25 25 bd 52 c3 01 3c
       -0.008668079 0.021951549 -0.04031867 0.007920103
000370 c9 b4 34 3d 33 25 02 3d 40 2d 16 bd 89 ce df 3c
       0.044117723 0.031773757 -0.036664248 0.027320163
000380 90 5d 9f 3c 5e c0 f6 3c ca 83 ef 3c 97 b8 25 3d
       0.019453794 0.030121025 0.029237647 0.04045924
000390 ce 07 e7 3c ba 71 db 3c ef 1b 0d 3d bd 6c 08 3d
       0.028201964 0.026787627 0.034450468 0.033306826
0003a0 1a 25 c5 3c a7 62 16 3d c8 86 00 3c de c0 a6 3c
       0.024065543 0.036715176 0.007844634 0.020355638
0003b0 87 01 a6 bc 26 1f fe 3c 4b fe 03 bd f0 14 51 3c
       -0.0202644 0.031020712 -0.032224935 0.01276134
0003c0 79 6a 8e 3c 64 cd 4b 3c bc 65 43 3c 0b b1 a6 bc
       0.017384754 0.012439106 0.011926111 -0.020348093
0003d0 9f aa 17 3d b6 d1 ff 3c 49 44 b7 bc 60 08 13 3b
       0.03702795 0.031227928 -0.022371428 0.0022435412
0003e0 e0 e5 b2 3a d4 8b 84 bc dd 0e 0c 3c d5 f5 11 bd
       0.001364883 -0.016179956 0.008548466 -0.035634834
0003f0 ea 78 b9 3c 38 ef 0d 3d 8a dc de 3c 18 65 28 bd
       0.022640664 0.034651965 0.02720477 -0.041112036

fc2.bias f4 [100]
000000 84 5d 5f 3c 06 d3 62 bc 02 2a 13 3d ec e4 1c 3d
       0.013633136 -0.013844257 0.035928734 0.038304254
000010 fc 7b 12 bc 43 5b 55 3d 88 f4 dd 3b be 8f 90 3c
       -0.008940693 0.052088987 0.006773535 0.017646667
000020 2f e2 20 3d ab de 36 3d 70 16 7c 3b 1b 08 1f 3b
       0.039278205 0.044645946 0.0038465522 0.0024266306
000030 0f b0 0a 3d 00 e1 42 bb 0d ba 0c 3d fc 8b ae bc
       0.03385931 -0.0029736161 0.03435712 -0.021306984
000040 ea 0c 13 bd f6 03 08 3d 00 93 22 39 8e 3c f2 3c
       -0.035900988 0.033206902 0.00015504286 0.02956989
000050 a7 60 cb bc a3 c8 35 bd 83 1c c7 bc b8 c2 ad bc
       -0.02482636 -0.044380795 -0.024305588 -0.021211013
000060 63 ff e1 bc fc 1a 1d 3d 7c 6c b0 bc 6a 98 f7 bc
       -0.027587598 0.038355812 -0.021536104 -0.030224044
000070 f3 d6 8d bc 12 35 ce 3c 3a a0 a4 bc 03 61 f7 3c
       -0.01731441 0.02517179 -0.020095933 0.030197626
000080 ad 00 27 bd 62 3a aa bc 0d 6f ea bc e0 67 85 3c
       -0.04077213 -0.020779792 -0.028617406 0.016284883
000090 f3 92 39 3d ea 1a 26 3c ce a1 0b 3d cc c5 22 3d
       0.045306157 0.010138253 0.034089856 0.039739415
0000a0 5e 44 b9 bc a4 fd ad 3c 0e dc 8c 3c f1 bc 11 3c
       -0.022615608 0.02123911 0.017194774 0.008895145
0000b0 de 14 73 3c 00 fc 9c 3b 70 c3 86 bb 86 93 0e bd
       0.014836518 0.004790783 -0.0041126534 -0.034808658
0000c0 d5 64 a2 3b 8c ec 52 3c 6b 7c eb 3b a8 c0 8e 3b
       0.004955868 0.01287378 0.0071864626 0.0043564625
0000d0 be 6e 63 bb ee 0c ff bc c9 ba 0c bd 69 29 2e 3d
       -0.0034703459 -0.031134095 -0.03435782 0.04251996
0000e0 d2 60 03 bd 5b 4d 29 3c e3 de ae bb 97 29 d4 bc
       -0.032074757 0.010333384 -0.0053366288 -0.025898738
0000f0 00 f2 f0 b8 68 ee 5b bc c4 45 2e bc ca ac ef bc
       -0.00011489168 -0.01342354 -0.010636751 -0.029257197
000100 1b 21 28 bd 7a a8 4b 3d c9 c0 0a 3d a5 d5 58 3c
       -0.041047197 0.04972122 0.03387526 0.013234531
000110 35 3c cb bc ad ad 21 bd 5e 80 8a bc 14 b2 10 3d
       -0.024808982 -0.03947227 -0.016906913 0.03532608
000120 68 f3 ce bc 6a de 3e 3d 4d 57 23 bd 99 41 b1 bc
       -0.02526255 0.04659883 -0.03987818 -0.021637725
000130 d1 c7 e5 bc c6 25 6e bc db 28 19 3c cc 3e 33 3c
       -0.028049381 -0.014535373 0.00934812 0.010940265
000140 1f 59 a3 bc e0 92 87 3c 13 8e af bc 7a 72 97 3c
       -0.019939957 0.016549528 -0.021430051 0.018487204
000150 42 d0 6c 3b 7a 07 e5 3c 14 70 0b bc f0 95 22 bd
       0.0036134874 0.027957667 -0.008510608 -0.039693773
000160 b0 62 33 3b 57 33 90 3b d6 7f 65 bc 4b 19 13 bd
       0.0027372055 0.0044006514 -0.014007529 -0.035912793
000170 d3 ab b3 bc c7 19 19 bd 70 09 4d 3b 25 26 96 bc
       -0.021932518 -0.0373781 0.0031286143 -0.018328736
000180 c0 82 fb 3c c8 53 93 bc 09 b9 49 3c 66 a2 88 ba
       0.030701995 -0.017984286 0.012312182 -0.0010424375

fc3.weight f4 [1, 100]
000000 f8 4e 7b 3d fe 1b 5a 3d 47 6f c3 bd 93 38 bc 3d
       0.061354607 0.05324935 -0.09542709 0.09190478
000010 ea 6e aa 3d 2e 6e 7a bc 6a c2 5a 3d d4 84 db bc
       0.083219364 -0.015285058 0.053408064 -0.026796736
000020 f2 52 42 3d 08 cf 86 bc 69 5c 99 3d b6 04 96 bd
       0.047442384 -0.016456142 0.07488329 -0.07325117
000030 5c 2f 87 3d e5 cf bf 3d c6 7e 0a 3c ca 8e cb bd
       0.0660083 0.093658246 0.008453077 -0.09939344
000040 22 fe 05 3d 71 37 a5 3d e0 30 df bb 39 1e c1 3d
       0.032713063 0.08067215 -0.0068112463 0.09429593
000050 c1 72 8d 3d bb e4 87 3d a9 21 85 3d ed 0e af bd
       0.06906653 0.06635424 0.06500561 -0.08547769
000060 28 c8 25 3c 92 7e 17 bd 94 9c 8e bc 6d f4 c9 3d
       0.010118522 -0.03698594 -0.017408647 0.09861074
000070 3b 00 ba 3d 3c 1e dd 3c 3d 82 85 bd b7 c2 72 bd
       0.09082075 0.026991956 -0.065189816 -0.059267726
000080 08 de 89 bc 7c 26 e9 3c 0f 30 9d 3d 01 3a bf bd
       -0.016829506 0.028460734 0.07675182 -0.09337235
000090 8f 25 4e bd 3a 28 c7 bd 63 6c a8 3d d7 8e c2 bd
       -0.050328787 -0.097244695 0.08223798 -0.09499901
0000a0 28 d9 07 bc e4 28 15 bd 7e 47 a8 3d 4f 06 9d bc
       -0.00829152 -0.03641595 0.08216761 -0.019168047
0000b0 a2 d7 f3 3c 98 ab 90 bd 30 0b 3e bc f4 54 96 3c
       0.029765908 -0.07063979 -0.011599347 0.018351056
0000c0 d1 0c 95 3d d4 9b c8 bc 28 6b 55 bd 80 7b ad bc
       0.07277835 -0.024488367 -0.052104145 -0.021177053
0000d0 a7 89 6b 3d 50 98 57 3c 10 ca ab bd 16 eb 64 3d
       0.057504322 0.013158873 -0.0838815 0.055888258
0000e0 db 38 c0 bd fd 70 6c bc d6 ae af 3d 48 12 a3 bc
       -0.09385844 -0.014431235 0.08578269 -0.019906178
0000f0 2a 92 56 3d d2 5a 66 3d 10 45 2f 3c a8 1b 83 bd
       0.052385487 0.056238957 0.010697618 -0.064017594
000100 e4 02 e0 3c 5b 23 40 bd f8 76 d9 bd 2a d0 d5 bd
       0.027345128 -0.046908718 -0.106183946 -0.10440095
000110 90 60 55 bd 30 c8 d5 3b 1d e9 bc 3d de 5e bc 3d
       -0.052094042 0.0065241084 0.0922415 0.09197782
000120 50 bd f0 bb a4 89 21 bd 04 47 80 bd a9 a4 ec bc
       -0.0073467866 -0.039437905 -0.06263545 -0.02888711
000130 da 07 0c 3d 20 a5 82 3b af 8a 7b 3d cd d9 c8 bd
       0.034187175 0.0039869696 0.061411556 -0.09807167
000140 02 df ae bd 20 00 17 bd 12 2b 07 3d 0c 04 e8 39
       -0.08538629 -0.036865354 0.03300006 0.00044253503
000150 46 3b 8b 3d 59 4a cc 3d 6a 7f 16 bd 8c 35 f5 bc
       0.06798415 0.09975118 -0.036742605 -0.02993276
000160 d1 d8 be 3d 7d fa 08 bd ab 42 cc bd 6d 20 a4 bd
       0.09318698 -0.03344201 -0.099736534 -0.08013997
000170 f6 eb 95 bd 5c 9e f5 3c 6a b0 a5 bd 4d b7 8b bd
       -0.073203966 0.029982738 -0.08090289 -0.06822071
000180 a1 67 fd 3c fa e8 5e bd 7a 00 7f bc ea f8 17 3d
       0.030933203 -0.054421403 -0.015564078 0.037102617
